{"class_name": "Functional", "config": {"name": "model_3", "layers": [{"class_name": "InputLayer", "config": {"batch_input_shape": [null, 132, 132, 1], "dtype": "float32", "sparse": false, "ragged": false, "name": "input_4"}, "name": "input_4", "inbound_nodes": []}, {"class_name": "Conv2D", "config": {"name": "conv2d_3336", "trainable": true, "dtype": "float32", "filters": 21, "kernel_size": [3, 3], "strides": [1, 1], "padding": "same", "data_format": "channels_last", "dilation_rate": [1, 1], "groups": 1, "activation": "linear", "use_bias": true, "kernel_initializer": {"class_name": "GlorotUniform", "config": {"seed": null}}, "bias_initializer": {"class_name": "Zeros", "config": {}}, "kernel_regularizer": null, "bias_regularizer": null, "activity_regularizer": null, "kernel_constraint": null, "bias_constraint": null}, "name": "conv2d_3336", "inbound_nodes": [[["input_4", 0, 0, {}]]]}, {"class_name": "Conv2D", "config": {"name": "conv2d_3337", "trainable": true, "dtype": "float32", "filters": 21, "kernel_size": [6, 6], "strides": [1, 1], "padding": "same", "data_format": "channels_last", "dilation_rate": [1, 1], "groups": 1, "activation": "linear", "use_bias": true, "kernel_initializer": {"class_name": "GlorotUniform", "config": {"seed": null}}, "bias_initializer": {"class_name": "Zeros", "config": {}}, "kernel_regularizer": null, "bias_regularizer": null, "activity_regularizer": null, "kernel_constraint": null, "bias_constraint": null}, "name": "conv2d_3337", "inbound_nodes": [[["input_4", 0, 0, {}]]]}, {"class_name": "Conv2D", "config": {"name": "conv2d_3338", "trainable": true, "dtype": "float32", "filters": 21, "kernel_size": [9, 9], "strides": [1, 1], "padding": "same", "data_format": "channels_last", "dilation_rate": [1, 1], "groups": 1, "activation": "linear", "use_bias": true, "kernel_initializer": {"class_name": "GlorotUniform", "config": {"seed": null}}, "bias_initializer": {"class_name": "Zeros", "config": {}}, "kernel_regularizer": null, "bias_regularizer": null, "activity_regularizer": null, "kernel_constraint": null, "bias_constraint": null}, "name": "conv2d_3338", "inbound_nodes": [[["input_4", 0, 0, {}]]]}, {"class_name": "BatchNormalization", "config": {"name": "batch_normalization_3624", "trainable": true, "dtype": "float32", "axis": [3], "momentum": 0.99, "epsilon": 0.001, "center": true, "scale": true, "beta_initializer": {"class_name": "Zeros", "config": {}}, "gamma_initializer": {"class_name": "Ones", "config": {}}, "moving_mean_initializer": {"class_name": "Zeros", "config": {}}, "moving_variance_initializer": {"class_name": "Ones", "config": {}}, "beta_regularizer": null, "gamma_regularizer": null, "beta_constraint": null, "gamma_constraint": null}, "name": "batch_normalization_3624", "inbound_nodes": [[["conv2d_3336", 0, 0, {}]]]}, {"class_name": "BatchNormalization", "config": {"name": "batch_normalization_3625", "trainable": true, "dtype": "float32", "axis": [3], "momentum": 0.99, "epsilon": 0.001, "center": true, "scale": true, "beta_initializer": {"class_name": "Zeros", "config": {}}, "gamma_initializer": {"class_name": "Ones", "config": {}}, "moving_mean_initializer": {"class_name": "Zeros", "config": {}}, "moving_variance_initializer": {"class_name": "Ones", "config": {}}, "beta_regularizer": null, "gamma_regularizer": null, "beta_constraint": null, "gamma_constraint": null}, "name": "batch_normalization_3625", "inbound_nodes": [[["conv2d_3337", 0, 0, {}]]]}, {"class_name": "BatchNormalization", "config": {"name": "batch_normalization_3626", "trainable": true, "dtype": "float32", "axis": [3], "momentum": 0.99, "epsilon": 0.001, "center": true, "scale": true, "beta_initializer": {"class_name": "Zeros", "config": {}}, "gamma_initializer": {"class_name": "Ones", "config": {}}, "moving_mean_initializer": {"class_name": "Zeros", "config": {}}, "moving_variance_initializer": {"class_name": "Ones", "config": {}}, "beta_regularizer": null, "gamma_regularizer": null, "beta_constraint": null, "gamma_constraint": null}, "name": "batch_normalization_3626", "inbound_nodes": [[["conv2d_3338", 0, 0, {}]]]}, {"class_name": "Activation", "config": {"name": "activation_3624", "trainable": true, "dtype": "float32", "activation": "relu"}, "name": "activation_3624", "inbound_nodes": [[["batch_normalization_3624", 0, 0, {}]]]}, {"class_name": "Activation", "config": {"name": "activation_3625", "trainable": true, "dtype": "float32", "activation": "relu"}, "name": "activation_3625", "inbound_nodes": [[["batch_normalization_3625", 0, 0, {}]]]}, {"class_name": "Activation", "config": {"name": "activation_3626", "trainable": true, "dtype": "float32", "activation": "relu"}, "name": "activation_3626", "inbound_nodes": [[["batch_normalization_3626", 0, 0, {}]]]}, {"class_name": "Add", "config": {"name": "add_912", "trainable": true, "dtype": "float32"}, "name": "add_912", "inbound_nodes": [[["activation_3624", 0, 0, {}], ["activation_3625", 0, 0, {}], ["activation_3626", 0, 0, {}]]]}, {"class_name": "Concatenate", "config": {"name": "concatenate_1059", "trainable": true, "dtype": "float32", "axis": -1}, "name": "concatenate_1059", "inbound_nodes": [[["input_4", 0, 0, {}], ["add_912", 0, 0, {}]]]}, {"class_name": "Conv2D", "config": {"name": "conv2d_3339", "trainable": true, "dtype": "float32", "filters": 21, "kernel_size": [3, 3], "strides": [1, 1], "padding": "same", "data_format": "channels_last", "dilation_rate": [1, 1], "groups": 1, "activation": "linear", "use_bias": true, "kernel_initializer": {"class_name": "GlorotUniform", "config": {"seed": null}}, "bias_initializer": {"class_name": "Zeros", "config": {}}, "kernel_regularizer": null, "bias_regularizer": null, "activity_regularizer": null, "kernel_constraint": null, "bias_constraint": null}, "name": "conv2d_3339", "inbound_nodes": [[["concatenate_1059", 0, 0, {}]]]}, {"class_name": "Conv2D", "config": {"name": "conv2d_3340", "trainable": true, "dtype": "float32", "filters": 21, "kernel_size": [6, 6], "strides": [1, 1], "padding": "same", "data_format": "channels_last", "dilation_rate": [1, 1], "groups": 1, "activation": "linear", "use_bias": true, "kernel_initializer": {"class_name": "GlorotUniform", "config": {"seed": null}}, "bias_initializer": {"class_name": "Zeros", "config": {}}, "kernel_regularizer": null, "bias_regularizer": null, "activity_regularizer": null, "kernel_constraint": null, "bias_constraint": null}, "name": "conv2d_3340", "inbound_nodes": [[["concatenate_1059", 0, 0, {}]]]}, {"class_name": "Conv2D", "config": {"name": "conv2d_3341", "trainable": true, "dtype": "float32", "filters": 21, "kernel_size": [9, 9], "strides": [1, 1], "padding": "same", "data_format": "channels_last", "dilation_rate": [1, 1], "groups": 1, "activation": "linear", "use_bias": true, "kernel_initializer": {"class_name": "GlorotUniform", "config": {"seed": null}}, "bias_initializer": {"class_name": "Zeros", "config": {}}, "kernel_regularizer": null, "bias_regularizer": null, "activity_regularizer": null, "kernel_constraint": null, "bias_constraint": null}, "name": "conv2d_3341", "inbound_nodes": [[["concatenate_1059", 0, 0, {}]]]}, {"class_name": "BatchNormalization", "config": {"name": "batch_normalization_3627", "trainable": true, "dtype": "float32", "axis": [3], "momentum": 0.99, "epsilon": 0.001, "center": true, "scale": true, "beta_initializer": {"class_name": "Zeros", "config": {}}, "gamma_initializer": {"class_name": "Ones", "config": {}}, "moving_mean_initializer": {"class_name": "Zeros", "config": {}}, "moving_variance_initializer": {"class_name": "Ones", "config": {}}, "beta_regularizer": null, "gamma_regularizer": null, "beta_constraint": null, "gamma_constraint": null}, "name": "batch_normalization_3627", "inbound_nodes": [[["conv2d_3339", 0, 0, {}]]]}, {"class_name": "BatchNormalization", "config": {"name": "batch_normalization_3628", "trainable": true, "dtype": "float32", "axis": [3], "momentum": 0.99, "epsilon": 0.001, "center": true, "scale": true, "beta_initializer": {"class_name": "Zeros", "config": {}}, "gamma_initializer": {"class_name": "Ones", "config": {}}, "moving_mean_initializer": {"class_name": "Zeros", "config": {}}, "moving_variance_initializer": {"class_name": "Ones", "config": {}}, "beta_regularizer": null, "gamma_regularizer": null, "beta_constraint": null, "gamma_constraint": null}, "name": "batch_normalization_3628", "inbound_nodes": [[["conv2d_3340", 0, 0, {}]]]}, {"class_name": "BatchNormalization", "config": {"name": "batch_normalization_3629", "trainable": true, "dtype": "float32", "axis": [3], "momentum": 0.99, "epsilon": 0.001, "center": true, "scale": true, "beta_initializer": {"class_name": "Zeros", "config": {}}, "gamma_initializer": {"class_name": "Ones", "config": {}}, "moving_mean_initializer": {"class_name": "Zeros", "config": {}}, "moving_variance_initializer": {"class_name": "Ones", "config": {}}, "beta_regularizer": null, "gamma_regularizer": null, "beta_constraint": null, "gamma_constraint": null}, "name": "batch_normalization_3629", "inbound_nodes": [[["conv2d_3341", 0, 0, {}]]]}, {"class_name": "Activation", "config": {"name": "activation_3627", "trainable": true, "dtype": "float32", "activation": "relu"}, "name": "activation_3627", "inbound_nodes": [[["batch_normalization_3627", 0, 0, {}]]]}, {"class_name": "Activation", "config": {"name": "activation_3628", "trainable": true, "dtype": "float32", "activation": "relu"}, "name": "activation_3628", "inbound_nodes": [[["batch_normalization_3628", 0, 0, {}]]]}, {"class_name": "Activation", "config": {"name": "activation_3629", "trainable": true, "dtype": "float32", "activation": "relu"}, "name": "activation_3629", "inbound_nodes": [[["batch_normalization_3629", 0, 0, {}]]]}, {"class_name": "Add", "config": {"name": "add_913", "trainable": true, "dtype": "float32"}, "name": "add_913", "inbound_nodes": [[["activation_3627", 0, 0, {}], ["activation_3628", 0, 0, {}], ["activation_3629", 0, 0, {}]]]}, {"class_name": "Concatenate", "config": {"name": "concatenate_1060", "trainable": true, "dtype": "float32", "axis": -1}, "name": "concatenate_1060", "inbound_nodes": [[["input_4", 0, 0, {}], ["concatenate_1059", 0, 0, {}], ["add_913", 0, 0, {}]]]}, {"class_name": "Conv2D", "config": {"name": "conv2d_3342", "trainable": true, "dtype": "float32", "filters": 64, "kernel_size": [1, 1], "strides": [1, 1], "padding": "same", "data_format": "channels_last", "dilation_rate": [1, 1], "groups": 1, "activation": "linear", "use_bias": true, "kernel_initializer": {"class_name": "GlorotUniform", "config": {"seed": null}}, "bias_initializer": {"class_name": "Zeros", "config": {}}, "kernel_regularizer": null, "bias_regularizer": null, "activity_regularizer": null, "kernel_constraint": null, "bias_constraint": null}, "name": "conv2d_3342", "inbound_nodes": [[["concatenate_1060", 0, 0, {}]]]}, {"class_name": "BatchNormalization", "config": {"name": "batch_normalization_3630", "trainable": true, "dtype": "float32", "axis": [3], "momentum": 0.99, "epsilon": 0.001, "center": true, "scale": true, "beta_initializer": {"class_name": "Zeros", "config": {}}, "gamma_initializer": {"class_name": "Ones", "config": {}}, "moving_mean_initializer": {"class_name": "Zeros", "config": {}}, "moving_variance_initializer": {"class_name": "Ones", "config": {}}, "beta_regularizer": null, "gamma_regularizer": null, "beta_constraint": null, "gamma_constraint": null}, "name": "batch_normalization_3630", "inbound_nodes": [[["conv2d_3342", 0, 0, {}]]]}, {"class_name": "Activation", "config": {"name": "activation_3630", "trainable": true, "dtype": "float32", "activation": "relu"}, "name": "activation_3630", "inbound_nodes": [[["batch_normalization_3630", 0, 0, {}]]]}, {"class_name": "MaxPooling2D", "config": {"name": "max_pooling2d_18", "trainable": true, "dtype": "float32", "pool_size": [2, 2], "padding": "valid", "strides": [2, 2], "data_format": "channels_last"}, "name": "max_pooling2d_18", "inbound_nodes": [[["activation_3630", 0, 0, {}]]]}, {"class_name": "Conv2D", "config": {"name": "conv2d_3343", "trainable": true, "dtype": "float32", "filters": 21, "kernel_size": [3, 3], "strides": [1, 1], "padding": "same", "data_format": "channels_last", "dilation_rate": [1, 1], "groups": 1, "activation": "linear", "use_bias": true, "kernel_initializer": {"class_name": "GlorotUniform", "config": {"seed": null}}, "bias_initializer": {"class_name": "Zeros", "config": {}}, "kernel_regularizer": null, "bias_regularizer": null, "activity_regularizer": null, "kernel_constraint": null, "bias_constraint": null}, "name": "conv2d_3343", "inbound_nodes": [[["max_pooling2d_18", 0, 0, {}]]]}, {"class_name": "Conv2D", "config": {"name": "conv2d_3344", "trainable": true, "dtype": "float32", "filters": 21, "kernel_size": [6, 6], "strides": [1, 1], "padding": "same", "data_format": "channels_last", "dilation_rate": [1, 1], "groups": 1, "activation": "linear", "use_bias": true, "kernel_initializer": {"class_name": "GlorotUniform", "config": {"seed": null}}, "bias_initializer": {"class_name": "Zeros", "config": {}}, "kernel_regularizer": null, "bias_regularizer": null, "activity_regularizer": null, "kernel_constraint": null, "bias_constraint": null}, "name": "conv2d_3344", "inbound_nodes": [[["max_pooling2d_18", 0, 0, {}]]]}, {"class_name": "Conv2D", "config": {"name": "conv2d_3345", "trainable": true, "dtype": "float32", "filters": 21, "kernel_size": [9, 9], "strides": [1, 1], "padding": "same", "data_format": "channels_last", "dilation_rate": [1, 1], "groups": 1, "activation": "linear", "use_bias": true, "kernel_initializer": {"class_name": "GlorotUniform", "config": {"seed": null}}, "bias_initializer": {"class_name": "Zeros", "config": {}}, "kernel_regularizer": null, "bias_regularizer": null, "activity_regularizer": null, "kernel_constraint": null, "bias_constraint": null}, "name": "conv2d_3345", "inbound_nodes": [[["max_pooling2d_18", 0, 0, {}]]]}, {"class_name": "BatchNormalization", "config": {"name": "batch_normalization_3631", "trainable": true, "dtype": "float32", "axis": [3], "momentum": 0.99, "epsilon": 0.001, "center": true, "scale": true, "beta_initializer": {"class_name": "Zeros", "config": {}}, "gamma_initializer": {"class_name": "Ones", "config": {}}, "moving_mean_initializer": {"class_name": "Zeros", "config": {}}, "moving_variance_initializer": {"class_name": "Ones", "config": {}}, "beta_regularizer": null, "gamma_regularizer": null, "beta_constraint": null, "gamma_constraint": null}, "name": "batch_normalization_3631", "inbound_nodes": [[["conv2d_3343", 0, 0, {}]]]}, {"class_name": "BatchNormalization", "config": {"name": "batch_normalization_3632", "trainable": true, "dtype": "float32", "axis": [3], "momentum": 0.99, "epsilon": 0.001, "center": true, "scale": true, "beta_initializer": {"class_name": "Zeros", "config": {}}, "gamma_initializer": {"class_name": "Ones", "config": {}}, "moving_mean_initializer": {"class_name": "Zeros", "config": {}}, "moving_variance_initializer": {"class_name": "Ones", "config": {}}, "beta_regularizer": null, "gamma_regularizer": null, "beta_constraint": null, "gamma_constraint": null}, "name": "batch_normalization_3632", "inbound_nodes": [[["conv2d_3344", 0, 0, {}]]]}, {"class_name": "BatchNormalization", "config": {"name": "batch_normalization_3633", "trainable": true, "dtype": "float32", "axis": [3], "momentum": 0.99, "epsilon": 0.001, "center": true, "scale": true, "beta_initializer": {"class_name": "Zeros", "config": {}}, "gamma_initializer": {"class_name": "Ones", "config": {}}, "moving_mean_initializer": {"class_name": "Zeros", "config": {}}, "moving_variance_initializer": {"class_name": "Ones", "config": {}}, "beta_regularizer": null, "gamma_regularizer": null, "beta_constraint": null, "gamma_constraint": null}, "name": "batch_normalization_3633", "inbound_nodes": [[["conv2d_3345", 0, 0, {}]]]}, {"class_name": "Activation", "config": {"name": "activation_3631", "trainable": true, "dtype": "float32", "activation": "relu"}, "name": "activation_3631", "inbound_nodes": [[["batch_normalization_3631", 0, 0, {}]]]}, {"class_name": "Activation", "config": {"name": "activation_3632", "trainable": true, "dtype": "float32", "activation": "relu"}, "name": "activation_3632", "inbound_nodes": [[["batch_normalization_3632", 0, 0, {}]]]}, {"class_name": "Activation", "config": {"name": "activation_3633", "trainable": true, "dtype": "float32", "activation": "relu"}, "name": "activation_3633", "inbound_nodes": [[["batch_normalization_3633", 0, 0, {}]]]}, {"class_name": "Add", "config": {"name": "add_914", "trainable": true, "dtype": "float32"}, "name": "add_914", "inbound_nodes": [[["activation_3631", 0, 0, {}], ["activation_3632", 0, 0, {}], ["activation_3633", 0, 0, {}]]]}, {"class_name": "Concatenate", "config": {"name": "concatenate_1061", "trainable": true, "dtype": "float32", "axis": -1}, "name": "concatenate_1061", "inbound_nodes": [[["max_pooling2d_18", 0, 0, {}], ["add_914", 0, 0, {}]]]}, {"class_name": "Conv2D", "config": {"name": "conv2d_3346", "trainable": true, "dtype": "float32", "filters": 21, "kernel_size": [3, 3], "strides": [1, 1], "padding": "same", "data_format": "channels_last", "dilation_rate": [1, 1], "groups": 1, "activation": "linear", "use_bias": true, "kernel_initializer": {"class_name": "GlorotUniform", "config": {"seed": null}}, "bias_initializer": {"class_name": "Zeros", "config": {}}, "kernel_regularizer": null, "bias_regularizer": null, "activity_regularizer": null, "kernel_constraint": null, "bias_constraint": null}, "name": "conv2d_3346", "inbound_nodes": [[["concatenate_1061", 0, 0, {}]]]}, {"class_name": "Conv2D", "config": {"name": "conv2d_3347", "trainable": true, "dtype": "float32", "filters": 21, "kernel_size": [6, 6], "strides": [1, 1], "padding": "same", "data_format": "channels_last", "dilation_rate": [1, 1], "groups": 1, "activation": "linear", "use_bias": true, "kernel_initializer": {"class_name": "GlorotUniform", "config": {"seed": null}}, "bias_initializer": {"class_name": "Zeros", "config": {}}, "kernel_regularizer": null, "bias_regularizer": null, "activity_regularizer": null, "kernel_constraint": null, "bias_constraint": null}, "name": "conv2d_3347", "inbound_nodes": [[["concatenate_1061", 0, 0, {}]]]}, {"class_name": "Conv2D", "config": {"name": "conv2d_3348", "trainable": true, "dtype": "float32", "filters": 21, "kernel_size": [9, 9], "strides": [1, 1], "padding": "same", "data_format": "channels_last", "dilation_rate": [1, 1], "groups": 1, "activation": "linear", "use_bias": true, "kernel_initializer": {"class_name": "GlorotUniform", "config": {"seed": null}}, "bias_initializer": {"class_name": "Zeros", "config": {}}, "kernel_regularizer": null, "bias_regularizer": null, "activity_regularizer": null, "kernel_constraint": null, "bias_constraint": null}, "name": "conv2d_3348", "inbound_nodes": [[["concatenate_1061", 0, 0, {}]]]}, {"class_name": "BatchNormalization", "config": {"name": "batch_normalization_3634", "trainable": true, "dtype": "float32", "axis": [3], "momentum": 0.99, "epsilon": 0.001, "center": true, "scale": true, "beta_initializer": {"class_name": "Zeros", "config": {}}, "gamma_initializer": {"class_name": "Ones", "config": {}}, "moving_mean_initializer": {"class_name": "Zeros", "config": {}}, "moving_variance_initializer": {"class_name": "Ones", "config": {}}, "beta_regularizer": null, "gamma_regularizer": null, "beta_constraint": null, "gamma_constraint": null}, "name": "batch_normalization_3634", "inbound_nodes": [[["conv2d_3346", 0, 0, {}]]]}, {"class_name": "BatchNormalization", "config": {"name": "batch_normalization_3635", "trainable": true, "dtype": "float32", "axis": [3], "momentum": 0.99, "epsilon": 0.001, "center": true, "scale": true, "beta_initializer": {"class_name": "Zeros", "config": {}}, "gamma_initializer": {"class_name": "Ones", "config": {}}, "moving_mean_initializer": {"class_name": "Zeros", "config": {}}, "moving_variance_initializer": {"class_name": "Ones", "config": {}}, "beta_regularizer": null, "gamma_regularizer": null, "beta_constraint": null, "gamma_constraint": null}, "name": "batch_normalization_3635", "inbound_nodes": [[["conv2d_3347", 0, 0, {}]]]}, {"class_name": "BatchNormalization", "config": {"name": "batch_normalization_3636", "trainable": true, "dtype": "float32", "axis": [3], "momentum": 0.99, "epsilon": 0.001, "center": true, "scale": true, "beta_initializer": {"class_name": "Zeros", "config": {}}, "gamma_initializer": {"class_name": "Ones", "config": {}}, "moving_mean_initializer": {"class_name": "Zeros", "config": {}}, "moving_variance_initializer": {"class_name": "Ones", "config": {}}, "beta_regularizer": null, "gamma_regularizer": null, "beta_constraint": null, "gamma_constraint": null}, "name": "batch_normalization_3636", "inbound_nodes": [[["conv2d_3348", 0, 0, {}]]]}, {"class_name": "Activation", "config": {"name": "activation_3634", "trainable": true, "dtype": "float32", "activation": "relu"}, "name": "activation_3634", "inbound_nodes": [[["batch_normalization_3634", 0, 0, {}]]]}, {"class_name": "Activation", "config": {"name": "activation_3635", "trainable": true, "dtype": "float32", "activation": "relu"}, "name": "activation_3635", "inbound_nodes": [[["batch_normalization_3635", 0, 0, {}]]]}, {"class_name": "Activation", "config": {"name": "activation_3636", "trainable": true, "dtype": "float32", "activation": "relu"}, "name": "activation_3636", "inbound_nodes": [[["batch_normalization_3636", 0, 0, {}]]]}, {"class_name": "Add", "config": {"name": "add_915", "trainable": true, "dtype": "float32"}, "name": "add_915", "inbound_nodes": [[["activation_3634", 0, 0, {}], ["activation_3635", 0, 0, {}], ["activation_3636", 0, 0, {}]]]}, {"class_name": "Concatenate", "config": {"name": "concatenate_1062", "trainable": true, "dtype": "float32", "axis": -1}, "name": "concatenate_1062", "inbound_nodes": [[["max_pooling2d_18", 0, 0, {}], ["concatenate_1061", 0, 0, {}], ["add_915", 0, 0, {}]]]}, {"class_name": "Conv2D", "config": {"name": "conv2d_3349", "trainable": true, "dtype": "float32", "filters": 64, "kernel_size": [1, 1], "strides": [1, 1], "padding": "same", "data_format": "channels_last", "dilation_rate": [1, 1], "groups": 1, "activation": "linear", "use_bias": true, "kernel_initializer": {"class_name": "GlorotUniform", "config": {"seed": null}}, "bias_initializer": {"class_name": "Zeros", "config": {}}, "kernel_regularizer": null, "bias_regularizer": null, "activity_regularizer": null, "kernel_constraint": null, "bias_constraint": null}, "name": "conv2d_3349", "inbound_nodes": [[["concatenate_1062", 0, 0, {}]]]}, {"class_name": "BatchNormalization", "config": {"name": "batch_normalization_3637", "trainable": true, "dtype": "float32", "axis": [3], "momentum": 0.99, "epsilon": 0.001, "center": true, "scale": true, "beta_initializer": {"class_name": "Zeros", "config": {}}, "gamma_initializer": {"class_name": "Ones", "config": {}}, "moving_mean_initializer": {"class_name": "Zeros", "config": {}}, "moving_variance_initializer": {"class_name": "Ones", "config": {}}, "beta_regularizer": null, "gamma_regularizer": null, "beta_constraint": null, "gamma_constraint": null}, "name": "batch_normalization_3637", "inbound_nodes": [[["conv2d_3349", 0, 0, {}]]]}, {"class_name": "Activation", "config": {"name": "activation_3637", "trainable": true, "dtype": "float32", "activation": "relu"}, "name": "activation_3637", "inbound_nodes": [[["batch_normalization_3637", 0, 0, {}]]]}, {"class_name": "MaxPooling2D", "config": {"name": "max_pooling2d_19", "trainable": true, "dtype": "float32", "pool_size": [2, 2], "padding": "valid", "strides": [2, 2], "data_format": "channels_last"}, "name": "max_pooling2d_19", "inbound_nodes": [[["activation_3637", 0, 0, {}]]]}, {"class_name": "Conv2D", "config": {"name": "conv2d_3350", "trainable": true, "dtype": "float32", "filters": 21, "kernel_size": [3, 3], "strides": [1, 1], "padding": "same", "data_format": "channels_last", "dilation_rate": [1, 1], "groups": 1, "activation": "linear", "use_bias": true, "kernel_initializer": {"class_name": "GlorotUniform", "config": {"seed": null}}, "bias_initializer": {"class_name": "Zeros", "config": {}}, "kernel_regularizer": null, "bias_regularizer": null, "activity_regularizer": null, "kernel_constraint": null, "bias_constraint": null}, "name": "conv2d_3350", "inbound_nodes": [[["max_pooling2d_19", 0, 0, {}]]]}, {"class_name": "Conv2D", "config": {"name": "conv2d_3351", "trainable": true, "dtype": "float32", "filters": 21, "kernel_size": [6, 6], "strides": [1, 1], "padding": "same", "data_format": "channels_last", "dilation_rate": [1, 1], "groups": 1, "activation": "linear", "use_bias": true, "kernel_initializer": {"class_name": "GlorotUniform", "config": {"seed": null}}, "bias_initializer": {"class_name": "Zeros", "config": {}}, "kernel_regularizer": null, "bias_regularizer": null, "activity_regularizer": null, "kernel_constraint": null, "bias_constraint": null}, "name": "conv2d_3351", "inbound_nodes": [[["max_pooling2d_19", 0, 0, {}]]]}, {"class_name": "Conv2D", "config": {"name": "conv2d_3352", "trainable": true, "dtype": "float32", "filters": 21, "kernel_size": [9, 9], "strides": [1, 1], "padding": "same", "data_format": "channels_last", "dilation_rate": [1, 1], "groups": 1, "activation": "linear", "use_bias": true, "kernel_initializer": {"class_name": "GlorotUniform", "config": {"seed": null}}, "bias_initializer": {"class_name": "Zeros", "config": {}}, "kernel_regularizer": null, "bias_regularizer": null, "activity_regularizer": null, "kernel_constraint": null, "bias_constraint": null}, "name": "conv2d_3352", "inbound_nodes": [[["max_pooling2d_19", 0, 0, {}]]]}, {"class_name": "BatchNormalization", "config": {"name": "batch_normalization_3638", "trainable": true, "dtype": "float32", "axis": [3], "momentum": 0.99, "epsilon": 0.001, "center": true, "scale": true, "beta_initializer": {"class_name": "Zeros", "config": {}}, "gamma_initializer": {"class_name": "Ones", "config": {}}, "moving_mean_initializer": {"class_name": "Zeros", "config": {}}, "moving_variance_initializer": {"class_name": "Ones", "config": {}}, "beta_regularizer": null, "gamma_regularizer": null, "beta_constraint": null, "gamma_constraint": null}, "name": "batch_normalization_3638", "inbound_nodes": [[["conv2d_3350", 0, 0, {}]]]}, {"class_name": "BatchNormalization", "config": {"name": "batch_normalization_3639", "trainable": true, "dtype": "float32", "axis": [3], "momentum": 0.99, "epsilon": 0.001, "center": true, "scale": true, "beta_initializer": {"class_name": "Zeros", "config": {}}, "gamma_initializer": {"class_name": "Ones", "config": {}}, "moving_mean_initializer": {"class_name": "Zeros", "config": {}}, "moving_variance_initializer": {"class_name": "Ones", "config": {}}, "beta_regularizer": null, "gamma_regularizer": null, "beta_constraint": null, "gamma_constraint": null}, "name": "batch_normalization_3639", "inbound_nodes": [[["conv2d_3351", 0, 0, {}]]]}, {"class_name": "BatchNormalization", "config": {"name": "batch_normalization_3640", "trainable": true, "dtype": "float32", "axis": [3], "momentum": 0.99, "epsilon": 0.001, "center": true, "scale": true, "beta_initializer": {"class_name": "Zeros", "config": {}}, "gamma_initializer": {"class_name": "Ones", "config": {}}, "moving_mean_initializer": {"class_name": "Zeros", "config": {}}, "moving_variance_initializer": {"class_name": "Ones", "config": {}}, "beta_regularizer": null, "gamma_regularizer": null, "beta_constraint": null, "gamma_constraint": null}, "name": "batch_normalization_3640", "inbound_nodes": [[["conv2d_3352", 0, 0, {}]]]}, {"class_name": "Activation", "config": {"name": "activation_3638", "trainable": true, "dtype": "float32", "activation": "relu"}, "name": "activation_3638", "inbound_nodes": [[["batch_normalization_3638", 0, 0, {}]]]}, {"class_name": "Activation", "config": {"name": "activation_3639", "trainable": true, "dtype": "float32", "activation": "relu"}, "name": "activation_3639", "inbound_nodes": [[["batch_normalization_3639", 0, 0, {}]]]}, {"class_name": "Activation", "config": {"name": "activation_3640", "trainable": true, "dtype": "float32", "activation": "relu"}, "name": "activation_3640", "inbound_nodes": [[["batch_normalization_3640", 0, 0, {}]]]}, {"class_name": "Add", "config": {"name": "add_916", "trainable": true, "dtype": "float32"}, "name": "add_916", "inbound_nodes": [[["activation_3638", 0, 0, {}], ["activation_3639", 0, 0, {}], ["activation_3640", 0, 0, {}]]]}, {"class_name": "Concatenate", "config": {"name": "concatenate_1063", "trainable": true, "dtype": "float32", "axis": -1}, "name": "concatenate_1063", "inbound_nodes": [[["max_pooling2d_19", 0, 0, {}], ["add_916", 0, 0, {}]]]}, {"class_name": "Conv2D", "config": {"name": "conv2d_3353", "trainable": true, "dtype": "float32", "filters": 21, "kernel_size": [3, 3], "strides": [1, 1], "padding": "same", "data_format": "channels_last", "dilation_rate": [1, 1], "groups": 1, "activation": "linear", "use_bias": true, "kernel_initializer": {"class_name": "GlorotUniform", "config": {"seed": null}}, "bias_initializer": {"class_name": "Zeros", "config": {}}, "kernel_regularizer": null, "bias_regularizer": null, "activity_regularizer": null, "kernel_constraint": null, "bias_constraint": null}, "name": "conv2d_3353", "inbound_nodes": [[["concatenate_1063", 0, 0, {}]]]}, {"class_name": "Conv2D", "config": {"name": "conv2d_3354", "trainable": true, "dtype": "float32", "filters": 21, "kernel_size": [6, 6], "strides": [1, 1], "padding": "same", "data_format": "channels_last", "dilation_rate": [1, 1], "groups": 1, "activation": "linear", "use_bias": true, "kernel_initializer": {"class_name": "GlorotUniform", "config": {"seed": null}}, "bias_initializer": {"class_name": "Zeros", "config": {}}, "kernel_regularizer": null, "bias_regularizer": null, "activity_regularizer": null, "kernel_constraint": null, "bias_constraint": null}, "name": "conv2d_3354", "inbound_nodes": [[["concatenate_1063", 0, 0, {}]]]}, {"class_name": "Conv2D", "config": {"name": "conv2d_3355", "trainable": true, "dtype": "float32", "filters": 21, "kernel_size": [9, 9], "strides": [1, 1], "padding": "same", "data_format": "channels_last", "dilation_rate": [1, 1], "groups": 1, "activation": "linear", "use_bias": true, "kernel_initializer": {"class_name": "GlorotUniform", "config": {"seed": null}}, "bias_initializer": {"class_name": "Zeros", "config": {}}, "kernel_regularizer": null, "bias_regularizer": null, "activity_regularizer": null, "kernel_constraint": null, "bias_constraint": null}, "name": "conv2d_3355", "inbound_nodes": [[["concatenate_1063", 0, 0, {}]]]}, {"class_name": "BatchNormalization", "config": {"name": "batch_normalization_3641", "trainable": true, "dtype": "float32", "axis": [3], "momentum": 0.99, "epsilon": 0.001, "center": true, "scale": true, "beta_initializer": {"class_name": "Zeros", "config": {}}, "gamma_initializer": {"class_name": "Ones", "config": {}}, "moving_mean_initializer": {"class_name": "Zeros", "config": {}}, "moving_variance_initializer": {"class_name": "Ones", "config": {}}, "beta_regularizer": null, "gamma_regularizer": null, "beta_constraint": null, "gamma_constraint": null}, "name": "batch_normalization_3641", "inbound_nodes": [[["conv2d_3353", 0, 0, {}]]]}, {"class_name": "BatchNormalization", "config": {"name": "batch_normalization_3642", "trainable": true, "dtype": "float32", "axis": [3], "momentum": 0.99, "epsilon": 0.001, "center": true, "scale": true, "beta_initializer": {"class_name": "Zeros", "config": {}}, "gamma_initializer": {"class_name": "Ones", "config": {}}, "moving_mean_initializer": {"class_name": "Zeros", "config": {}}, "moving_variance_initializer": {"class_name": "Ones", "config": {}}, "beta_regularizer": null, "gamma_regularizer": null, "beta_constraint": null, "gamma_constraint": null}, "name": "batch_normalization_3642", "inbound_nodes": [[["conv2d_3354", 0, 0, {}]]]}, {"class_name": "BatchNormalization", "config": {"name": "batch_normalization_3643", "trainable": true, "dtype": "float32", "axis": [3], "momentum": 0.99, "epsilon": 0.001, "center": true, "scale": true, "beta_initializer": {"class_name": "Zeros", "config": {}}, "gamma_initializer": {"class_name": "Ones", "config": {}}, "moving_mean_initializer": {"class_name": "Zeros", "config": {}}, "moving_variance_initializer": {"class_name": "Ones", "config": {}}, "beta_regularizer": null, "gamma_regularizer": null, "beta_constraint": null, "gamma_constraint": null}, "name": "batch_normalization_3643", "inbound_nodes": [[["conv2d_3355", 0, 0, {}]]]}, {"class_name": "Activation", "config": {"name": "activation_3641", "trainable": true, "dtype": "float32", "activation": "relu"}, "name": "activation_3641", "inbound_nodes": [[["batch_normalization_3641", 0, 0, {}]]]}, {"class_name": "Activation", "config": {"name": "activation_3642", "trainable": true, "dtype": "float32", "activation": "relu"}, "name": "activation_3642", "inbound_nodes": [[["batch_normalization_3642", 0, 0, {}]]]}, {"class_name": "Activation", "config": {"name": "activation_3643", "trainable": true, "dtype": "float32", "activation": "relu"}, "name": "activation_3643", "inbound_nodes": [[["batch_normalization_3643", 0, 0, {}]]]}, {"class_name": "Add", "config": {"name": "add_917", "trainable": true, "dtype": "float32"}, "name": "add_917", "inbound_nodes": [[["activation_3641", 0, 0, {}], ["activation_3642", 0, 0, {}], ["activation_3643", 0, 0, {}]]]}, {"class_name": "Concatenate", "config": {"name": "concatenate_1064", "trainable": true, "dtype": "float32", "axis": -1}, "name": "concatenate_1064", "inbound_nodes": [[["max_pooling2d_19", 0, 0, {}], ["concatenate_1063", 0, 0, {}], ["add_917", 0, 0, {}]]]}, {"class_name": "Conv2D", "config": {"name": "conv2d_3356", "trainable": true, "dtype": "float32", "filters": 64, "kernel_size": [1, 1], "strides": [1, 1], "padding": "same", "data_format": "channels_last", "dilation_rate": [1, 1], "groups": 1, "activation": "linear", "use_bias": true, "kernel_initializer": {"class_name": "GlorotUniform", "config": {"seed": null}}, "bias_initializer": {"class_name": "Zeros", "config": {}}, "kernel_regularizer": null, "bias_regularizer": null, "activity_regularizer": null, "kernel_constraint": null, "bias_constraint": null}, "name": "conv2d_3356", "inbound_nodes": [[["concatenate_1064", 0, 0, {}]]]}, {"class_name": "BatchNormalization", "config": {"name": "batch_normalization_3644", "trainable": true, "dtype": "float32", "axis": [3], "momentum": 0.99, "epsilon": 0.001, "center": true, "scale": true, "beta_initializer": {"class_name": "Zeros", "config": {}}, "gamma_initializer": {"class_name": "Ones", "config": {}}, "moving_mean_initializer": {"class_name": "Zeros", "config": {}}, "moving_variance_initializer": {"class_name": "Ones", "config": {}}, "beta_regularizer": null, "gamma_regularizer": null, "beta_constraint": null, "gamma_constraint": null}, "name": "batch_normalization_3644", "inbound_nodes": [[["conv2d_3356", 0, 0, {}]]]}, {"class_name": "Activation", "config": {"name": "activation_3644", "trainable": true, "dtype": "float32", "activation": "relu"}, "name": "activation_3644", "inbound_nodes": [[["batch_normalization_3644", 0, 0, {}]]]}, {"class_name": "MaxPooling2D", "config": {"name": "max_pooling2d_20", "trainable": true, "dtype": "float32", "pool_size": [2, 2], "padding": "valid", "strides": [2, 2], "data_format": "channels_last"}, "name": "max_pooling2d_20", "inbound_nodes": [[["activation_3644", 0, 0, {}]]]}, {"class_name": "Conv2D", "config": {"name": "conv2d_3357", "trainable": true, "dtype": "float32", "filters": 21, "kernel_size": [3, 3], "strides": [1, 1], "padding": "same", "data_format": "channels_last", "dilation_rate": [1, 1], "groups": 1, "activation": "linear", "use_bias": true, "kernel_initializer": {"class_name": "GlorotUniform", "config": {"seed": null}}, "bias_initializer": {"class_name": "Zeros", "config": {}}, "kernel_regularizer": null, "bias_regularizer": null, "activity_regularizer": null, "kernel_constraint": null, "bias_constraint": null}, "name": "conv2d_3357", "inbound_nodes": [[["max_pooling2d_20", 0, 0, {}]]]}, {"class_name": "Conv2D", "config": {"name": "conv2d_3358", "trainable": true, "dtype": "float32", "filters": 21, "kernel_size": [6, 6], "strides": [1, 1], "padding": "same", "data_format": "channels_last", "dilation_rate": [1, 1], "groups": 1, "activation": "linear", "use_bias": true, "kernel_initializer": {"class_name": "GlorotUniform", "config": {"seed": null}}, "bias_initializer": {"class_name": "Zeros", "config": {}}, "kernel_regularizer": null, "bias_regularizer": null, "activity_regularizer": null, "kernel_constraint": null, "bias_constraint": null}, "name": "conv2d_3358", "inbound_nodes": [[["max_pooling2d_20", 0, 0, {}]]]}, {"class_name": "Conv2D", "config": {"name": "conv2d_3359", "trainable": true, "dtype": "float32", "filters": 21, "kernel_size": [9, 9], "strides": [1, 1], "padding": "same", "data_format": "channels_last", "dilation_rate": [1, 1], "groups": 1, "activation": "linear", "use_bias": true, "kernel_initializer": {"class_name": "GlorotUniform", "config": {"seed": null}}, "bias_initializer": {"class_name": "Zeros", "config": {}}, "kernel_regularizer": null, "bias_regularizer": null, "activity_regularizer": null, "kernel_constraint": null, "bias_constraint": null}, "name": "conv2d_3359", "inbound_nodes": [[["max_pooling2d_20", 0, 0, {}]]]}, {"class_name": "BatchNormalization", "config": {"name": "batch_normalization_3645", "trainable": true, "dtype": "float32", "axis": [3], "momentum": 0.99, "epsilon": 0.001, "center": true, "scale": true, "beta_initializer": {"class_name": "Zeros", "config": {}}, "gamma_initializer": {"class_name": "Ones", "config": {}}, "moving_mean_initializer": {"class_name": "Zeros", "config": {}}, "moving_variance_initializer": {"class_name": "Ones", "config": {}}, "beta_regularizer": null, "gamma_regularizer": null, "beta_constraint": null, "gamma_constraint": null}, "name": "batch_normalization_3645", "inbound_nodes": [[["conv2d_3357", 0, 0, {}]]]}, {"class_name": "BatchNormalization", "config": {"name": "batch_normalization_3646", "trainable": true, "dtype": "float32", "axis": [3], "momentum": 0.99, "epsilon": 0.001, "center": true, "scale": true, "beta_initializer": {"class_name": "Zeros", "config": {}}, "gamma_initializer": {"class_name": "Ones", "config": {}}, "moving_mean_initializer": {"class_name": "Zeros", "config": {}}, "moving_variance_initializer": {"class_name": "Ones", "config": {}}, "beta_regularizer": null, "gamma_regularizer": null, "beta_constraint": null, "gamma_constraint": null}, "name": "batch_normalization_3646", "inbound_nodes": [[["conv2d_3358", 0, 0, {}]]]}, {"class_name": "BatchNormalization", "config": {"name": "batch_normalization_3647", "trainable": true, "dtype": "float32", "axis": [3], "momentum": 0.99, "epsilon": 0.001, "center": true, "scale": true, "beta_initializer": {"class_name": "Zeros", "config": {}}, "gamma_initializer": {"class_name": "Ones", "config": {}}, "moving_mean_initializer": {"class_name": "Zeros", "config": {}}, "moving_variance_initializer": {"class_name": "Ones", "config": {}}, "beta_regularizer": null, "gamma_regularizer": null, "beta_constraint": null, "gamma_constraint": null}, "name": "batch_normalization_3647", "inbound_nodes": [[["conv2d_3359", 0, 0, {}]]]}, {"class_name": "Activation", "config": {"name": "activation_3645", "trainable": true, "dtype": "float32", "activation": "relu"}, "name": "activation_3645", "inbound_nodes": [[["batch_normalization_3645", 0, 0, {}]]]}, {"class_name": "Activation", "config": {"name": "activation_3646", "trainable": true, "dtype": "float32", "activation": "relu"}, "name": "activation_3646", "inbound_nodes": [[["batch_normalization_3646", 0, 0, {}]]]}, {"class_name": "Activation", "config": {"name": "activation_3647", "trainable": true, "dtype": "float32", "activation": "relu"}, "name": "activation_3647", "inbound_nodes": [[["batch_normalization_3647", 0, 0, {}]]]}, {"class_name": "Add", "config": {"name": "add_918", "trainable": true, "dtype": "float32"}, "name": "add_918", "inbound_nodes": [[["activation_3645", 0, 0, {}], ["activation_3646", 0, 0, {}], ["activation_3647", 0, 0, {}]]]}, {"class_name": "Concatenate", "config": {"name": "concatenate_1065", "trainable": true, "dtype": "float32", "axis": -1}, "name": "concatenate_1065", "inbound_nodes": [[["max_pooling2d_20", 0, 0, {}], ["add_918", 0, 0, {}]]]}, {"class_name": "Conv2D", "config": {"name": "conv2d_3360", "trainable": true, "dtype": "float32", "filters": 21, "kernel_size": [3, 3], "strides": [1, 1], "padding": "same", "data_format": "channels_last", "dilation_rate": [1, 1], "groups": 1, "activation": "linear", "use_bias": true, "kernel_initializer": {"class_name": "GlorotUniform", "config": {"seed": null}}, "bias_initializer": {"class_name": "Zeros", "config": {}}, "kernel_regularizer": null, "bias_regularizer": null, "activity_regularizer": null, "kernel_constraint": null, "bias_constraint": null}, "name": "conv2d_3360", "inbound_nodes": [[["concatenate_1065", 0, 0, {}]]]}, {"class_name": "Conv2D", "config": {"name": "conv2d_3361", "trainable": true, "dtype": "float32", "filters": 21, "kernel_size": [6, 6], "strides": [1, 1], "padding": "same", "data_format": "channels_last", "dilation_rate": [1, 1], "groups": 1, "activation": "linear", "use_bias": true, "kernel_initializer": {"class_name": "GlorotUniform", "config": {"seed": null}}, "bias_initializer": {"class_name": "Zeros", "config": {}}, "kernel_regularizer": null, "bias_regularizer": null, "activity_regularizer": null, "kernel_constraint": null, "bias_constraint": null}, "name": "conv2d_3361", "inbound_nodes": [[["concatenate_1065", 0, 0, {}]]]}, {"class_name": "Conv2D", "config": {"name": "conv2d_3362", "trainable": true, "dtype": "float32", "filters": 21, "kernel_size": [9, 9], "strides": [1, 1], "padding": "same", "data_format": "channels_last", "dilation_rate": [1, 1], "groups": 1, "activation": "linear", "use_bias": true, "kernel_initializer": {"class_name": "GlorotUniform", "config": {"seed": null}}, "bias_initializer": {"class_name": "Zeros", "config": {}}, "kernel_regularizer": null, "bias_regularizer": null, "activity_regularizer": null, "kernel_constraint": null, "bias_constraint": null}, "name": "conv2d_3362", "inbound_nodes": [[["concatenate_1065", 0, 0, {}]]]}, {"class_name": "BatchNormalization", "config": {"name": "batch_normalization_3648", "trainable": true, "dtype": "float32", "axis": [3], "momentum": 0.99, "epsilon": 0.001, "center": true, "scale": true, "beta_initializer": {"class_name": "Zeros", "config": {}}, "gamma_initializer": {"class_name": "Ones", "config": {}}, "moving_mean_initializer": {"class_name": "Zeros", "config": {}}, "moving_variance_initializer": {"class_name": "Ones", "config": {}}, "beta_regularizer": null, "gamma_regularizer": null, "beta_constraint": null, "gamma_constraint": null}, "name": "batch_normalization_3648", "inbound_nodes": [[["conv2d_3360", 0, 0, {}]]]}, {"class_name": "BatchNormalization", "config": {"name": "batch_normalization_3649", "trainable": true, "dtype": "float32", "axis": [3], "momentum": 0.99, "epsilon": 0.001, "center": true, "scale": true, "beta_initializer": {"class_name": "Zeros", "config": {}}, "gamma_initializer": {"class_name": "Ones", "config": {}}, "moving_mean_initializer": {"class_name": "Zeros", "config": {}}, "moving_variance_initializer": {"class_name": "Ones", "config": {}}, "beta_regularizer": null, "gamma_regularizer": null, "beta_constraint": null, "gamma_constraint": null}, "name": "batch_normalization_3649", "inbound_nodes": [[["conv2d_3361", 0, 0, {}]]]}, {"class_name": "BatchNormalization", "config": {"name": "batch_normalization_3650", "trainable": true, "dtype": "float32", "axis": [3], "momentum": 0.99, "epsilon": 0.001, "center": true, "scale": true, "beta_initializer": {"class_name": "Zeros", "config": {}}, "gamma_initializer": {"class_name": "Ones", "config": {}}, "moving_mean_initializer": {"class_name": "Zeros", "config": {}}, "moving_variance_initializer": {"class_name": "Ones", "config": {}}, "beta_regularizer": null, "gamma_regularizer": null, "beta_constraint": null, "gamma_constraint": null}, "name": "batch_normalization_3650", "inbound_nodes": [[["conv2d_3362", 0, 0, {}]]]}, {"class_name": "Activation", "config": {"name": "activation_3648", "trainable": true, "dtype": "float32", "activation": "relu"}, "name": "activation_3648", "inbound_nodes": [[["batch_normalization_3648", 0, 0, {}]]]}, {"class_name": "Activation", "config": {"name": "activation_3649", "trainable": true, "dtype": "float32", "activation": "relu"}, "name": "activation_3649", "inbound_nodes": [[["batch_normalization_3649", 0, 0, {}]]]}, {"class_name": "Activation", "config": {"name": "activation_3650", "trainable": true, "dtype": "float32", "activation": "relu"}, "name": "activation_3650", "inbound_nodes": [[["batch_normalization_3650", 0, 0, {}]]]}, {"class_name": "Add", "config": {"name": "add_919", "trainable": true, "dtype": "float32"}, "name": "add_919", "inbound_nodes": [[["activation_3648", 0, 0, {}], ["activation_3649", 0, 0, {}], ["activation_3650", 0, 0, {}]]]}, {"class_name": "Concatenate", "config": {"name": "concatenate_1066", "trainable": true, "dtype": "float32", "axis": -1}, "name": "concatenate_1066", "inbound_nodes": [[["max_pooling2d_20", 0, 0, {}], ["concatenate_1065", 0, 0, {}], ["add_919", 0, 0, {}]]]}, {"class_name": "Conv2D", "config": {"name": "conv2d_3363", "trainable": true, "dtype": "float32", "filters": 64, "kernel_size": [1, 1], "strides": [1, 1], "padding": "same", "data_format": "channels_last", "dilation_rate": [1, 1], "groups": 1, "activation": "linear", "use_bias": true, "kernel_initializer": {"class_name": "GlorotUniform", "config": {"seed": null}}, "bias_initializer": {"class_name": "Zeros", "config": {}}, "kernel_regularizer": null, "bias_regularizer": null, "activity_regularizer": null, "kernel_constraint": null, "bias_constraint": null}, "name": "conv2d_3363", "inbound_nodes": [[["concatenate_1066", 0, 0, {}]]]}, {"class_name": "BatchNormalization", "config": {"name": "batch_normalization_3651", "trainable": true, "dtype": "float32", "axis": [3], "momentum": 0.99, "epsilon": 0.001, "center": true, "scale": true, "beta_initializer": {"class_name": "Zeros", "config": {}}, "gamma_initializer": {"class_name": "Ones", "config": {}}, "moving_mean_initializer": {"class_name": "Zeros", "config": {}}, "moving_variance_initializer": {"class_name": "Ones", "config": {}}, "beta_regularizer": null, "gamma_regularizer": null, "beta_constraint": null, "gamma_constraint": null}, "name": "batch_normalization_3651", "inbound_nodes": [[["conv2d_3363", 0, 0, {}]]]}, {"class_name": "Activation", "config": {"name": "activation_3651", "trainable": true, "dtype": "float32", "activation": "relu"}, "name": "activation_3651", "inbound_nodes": [[["batch_normalization_3651", 0, 0, {}]]]}, {"class_name": "Conv2DTranspose", "config": {"name": "conv2d_transpose_432", "trainable": true, "dtype": "float32", "filters": 64, "kernel_size": [3, 3], "strides": [2, 2], "padding": "valid", "data_format": "channels_last", "dilation_rate": [1, 1], "groups": 1, "activation": "linear", "use_bias": true, "kernel_initializer": {"class_name": "GlorotUniform", "config": {"seed": null}}, "bias_initializer": {"class_name": "Zeros", "config": {}}, "kernel_regularizer": null, "bias_regularizer": null, "activity_regularizer": null, "kernel_constraint": null, "bias_constraint": null, "output_padding": null}, "name": "conv2d_transpose_432", "inbound_nodes": [[["activation_3651", 0, 0, {}]]]}, {"class_name": "BatchNormalization", "config": {"name": "batch_normalization_3652", "trainable": true, "dtype": "float32", "axis": [3], "momentum": 0.99, "epsilon": 0.001, "center": true, "scale": true, "beta_initializer": {"class_name": "Zeros", "config": {}}, "gamma_initializer": {"class_name": "Ones", "config": {}}, "moving_mean_initializer": {"class_name": "Zeros", "config": {}}, "moving_variance_initializer": {"class_name": "Ones", "config": {}}, "beta_regularizer": null, "gamma_regularizer": null, "beta_constraint": null, "gamma_constraint": null}, "name": "batch_normalization_3652", "inbound_nodes": [[["conv2d_transpose_432", 0, 0, {}]]]}, {"class_name": "Activation", "config": {"name": "activation_3652", "trainable": true, "dtype": "float32", "activation": "relu"}, "name": "activation_3652", "inbound_nodes": [[["batch_normalization_3652", 0, 0, {}]]]}, {"class_name": "Concatenate", "config": {"name": "concatenate_1067", "trainable": true, "dtype": "float32", "axis": -1}, "name": "concatenate_1067", "inbound_nodes": [[["activation_3644", 0, 0, {}], ["activation_3652", 0, 0, {}]]]}, {"class_name": "Conv2D", "config": {"name": "conv2d_3364", "trainable": true, "dtype": "float32", "filters": 21, "kernel_size": [3, 3], "strides": [1, 1], "padding": "same", "data_format": "channels_last", "dilation_rate": [1, 1], "groups": 1, "activation": "linear", "use_bias": true, "kernel_initializer": {"class_name": "GlorotUniform", "config": {"seed": null}}, "bias_initializer": {"class_name": "Zeros", "config": {}}, "kernel_regularizer": null, "bias_regularizer": null, "activity_regularizer": null, "kernel_constraint": null, "bias_constraint": null}, "name": "conv2d_3364", "inbound_nodes": [[["concatenate_1067", 0, 0, {}]]]}, {"class_name": "Conv2D", "config": {"name": "conv2d_3365", "trainable": true, "dtype": "float32", "filters": 21, "kernel_size": [6, 6], "strides": [1, 1], "padding": "same", "data_format": "channels_last", "dilation_rate": [1, 1], "groups": 1, "activation": "linear", "use_bias": true, "kernel_initializer": {"class_name": "GlorotUniform", "config": {"seed": null}}, "bias_initializer": {"class_name": "Zeros", "config": {}}, "kernel_regularizer": null, "bias_regularizer": null, "activity_regularizer": null, "kernel_constraint": null, "bias_constraint": null}, "name": "conv2d_3365", "inbound_nodes": [[["concatenate_1067", 0, 0, {}]]]}, {"class_name": "Conv2D", "config": {"name": "conv2d_3366", "trainable": true, "dtype": "float32", "filters": 21, "kernel_size": [9, 9], "strides": [1, 1], "padding": "same", "data_format": "channels_last", "dilation_rate": [1, 1], "groups": 1, "activation": "linear", "use_bias": true, "kernel_initializer": {"class_name": "GlorotUniform", "config": {"seed": null}}, "bias_initializer": {"class_name": "Zeros", "config": {}}, "kernel_regularizer": null, "bias_regularizer": null, "activity_regularizer": null, "kernel_constraint": null, "bias_constraint": null}, "name": "conv2d_3366", "inbound_nodes": [[["concatenate_1067", 0, 0, {}]]]}, {"class_name": "BatchNormalization", "config": {"name": "batch_normalization_3653", "trainable": true, "dtype": "float32", "axis": [3], "momentum": 0.99, "epsilon": 0.001, "center": true, "scale": true, "beta_initializer": {"class_name": "Zeros", "config": {}}, "gamma_initializer": {"class_name": "Ones", "config": {}}, "moving_mean_initializer": {"class_name": "Zeros", "config": {}}, "moving_variance_initializer": {"class_name": "Ones", "config": {}}, "beta_regularizer": null, "gamma_regularizer": null, "beta_constraint": null, "gamma_constraint": null}, "name": "batch_normalization_3653", "inbound_nodes": [[["conv2d_3364", 0, 0, {}]]]}, {"class_name": "BatchNormalization", "config": {"name": "batch_normalization_3654", "trainable": true, "dtype": "float32", "axis": [3], "momentum": 0.99, "epsilon": 0.001, "center": true, "scale": true, "beta_initializer": {"class_name": "Zeros", "config": {}}, "gamma_initializer": {"class_name": "Ones", "config": {}}, "moving_mean_initializer": {"class_name": "Zeros", "config": {}}, "moving_variance_initializer": {"class_name": "Ones", "config": {}}, "beta_regularizer": null, "gamma_regularizer": null, "beta_constraint": null, "gamma_constraint": null}, "name": "batch_normalization_3654", "inbound_nodes": [[["conv2d_3365", 0, 0, {}]]]}, {"class_name": "BatchNormalization", "config": {"name": "batch_normalization_3655", "trainable": true, "dtype": "float32", "axis": [3], "momentum": 0.99, "epsilon": 0.001, "center": true, "scale": true, "beta_initializer": {"class_name": "Zeros", "config": {}}, "gamma_initializer": {"class_name": "Ones", "config": {}}, "moving_mean_initializer": {"class_name": "Zeros", "config": {}}, "moving_variance_initializer": {"class_name": "Ones", "config": {}}, "beta_regularizer": null, "gamma_regularizer": null, "beta_constraint": null, "gamma_constraint": null}, "name": "batch_normalization_3655", "inbound_nodes": [[["conv2d_3366", 0, 0, {}]]]}, {"class_name": "Activation", "config": {"name": "activation_3653", "trainable": true, "dtype": "float32", "activation": "relu"}, "name": "activation_3653", "inbound_nodes": [[["batch_normalization_3653", 0, 0, {}]]]}, {"class_name": "Activation", "config": {"name": "activation_3654", "trainable": true, "dtype": "float32", "activation": "relu"}, "name": "activation_3654", "inbound_nodes": [[["batch_normalization_3654", 0, 0, {}]]]}, {"class_name": "Activation", "config": {"name": "activation_3655", "trainable": true, "dtype": "float32", "activation": "relu"}, "name": "activation_3655", "inbound_nodes": [[["batch_normalization_3655", 0, 0, {}]]]}, {"class_name": "Add", "config": {"name": "add_920", "trainable": true, "dtype": "float32"}, "name": "add_920", "inbound_nodes": [[["activation_3653", 0, 0, {}], ["activation_3654", 0, 0, {}], ["activation_3655", 0, 0, {}]]]}, {"class_name": "Concatenate", "config": {"name": "concatenate_1068", "trainable": true, "dtype": "float32", "axis": -1}, "name": "concatenate_1068", "inbound_nodes": [[["concatenate_1067", 0, 0, {}], ["add_920", 0, 0, {}]]]}, {"class_name": "Conv2D", "config": {"name": "conv2d_3367", "trainable": true, "dtype": "float32", "filters": 21, "kernel_size": [3, 3], "strides": [1, 1], "padding": "same", "data_format": "channels_last", "dilation_rate": [1, 1], "groups": 1, "activation": "linear", "use_bias": true, "kernel_initializer": {"class_name": "GlorotUniform", "config": {"seed": null}}, "bias_initializer": {"class_name": "Zeros", "config": {}}, "kernel_regularizer": null, "bias_regularizer": null, "activity_regularizer": null, "kernel_constraint": null, "bias_constraint": null}, "name": "conv2d_3367", "inbound_nodes": [[["concatenate_1068", 0, 0, {}]]]}, {"class_name": "Conv2D", "config": {"name": "conv2d_3368", "trainable": true, "dtype": "float32", "filters": 21, "kernel_size": [6, 6], "strides": [1, 1], "padding": "same", "data_format": "channels_last", "dilation_rate": [1, 1], "groups": 1, "activation": "linear", "use_bias": true, "kernel_initializer": {"class_name": "GlorotUniform", "config": {"seed": null}}, "bias_initializer": {"class_name": "Zeros", "config": {}}, "kernel_regularizer": null, "bias_regularizer": null, "activity_regularizer": null, "kernel_constraint": null, "bias_constraint": null}, "name": "conv2d_3368", "inbound_nodes": [[["concatenate_1068", 0, 0, {}]]]}, {"class_name": "Conv2D", "config": {"name": "conv2d_3369", "trainable": true, "dtype": "float32", "filters": 21, "kernel_size": [9, 9], "strides": [1, 1], "padding": "same", "data_format": "channels_last", "dilation_rate": [1, 1], "groups": 1, "activation": "linear", "use_bias": true, "kernel_initializer": {"class_name": "GlorotUniform", "config": {"seed": null}}, "bias_initializer": {"class_name": "Zeros", "config": {}}, "kernel_regularizer": null, "bias_regularizer": null, "activity_regularizer": null, "kernel_constraint": null, "bias_constraint": null}, "name": "conv2d_3369", "inbound_nodes": [[["concatenate_1068", 0, 0, {}]]]}, {"class_name": "BatchNormalization", "config": {"name": "batch_normalization_3656", "trainable": true, "dtype": "float32", "axis": [3], "momentum": 0.99, "epsilon": 0.001, "center": true, "scale": true, "beta_initializer": {"class_name": "Zeros", "config": {}}, "gamma_initializer": {"class_name": "Ones", "config": {}}, "moving_mean_initializer": {"class_name": "Zeros", "config": {}}, "moving_variance_initializer": {"class_name": "Ones", "config": {}}, "beta_regularizer": null, "gamma_regularizer": null, "beta_constraint": null, "gamma_constraint": null}, "name": "batch_normalization_3656", "inbound_nodes": [[["conv2d_3367", 0, 0, {}]]]}, {"class_name": "BatchNormalization", "config": {"name": "batch_normalization_3657", "trainable": true, "dtype": "float32", "axis": [3], "momentum": 0.99, "epsilon": 0.001, "center": true, "scale": true, "beta_initializer": {"class_name": "Zeros", "config": {}}, "gamma_initializer": {"class_name": "Ones", "config": {}}, "moving_mean_initializer": {"class_name": "Zeros", "config": {}}, "moving_variance_initializer": {"class_name": "Ones", "config": {}}, "beta_regularizer": null, "gamma_regularizer": null, "beta_constraint": null, "gamma_constraint": null}, "name": "batch_normalization_3657", "inbound_nodes": [[["conv2d_3368", 0, 0, {}]]]}, {"class_name": "BatchNormalization", "config": {"name": "batch_normalization_3658", "trainable": true, "dtype": "float32", "axis": [3], "momentum": 0.99, "epsilon": 0.001, "center": true, "scale": true, "beta_initializer": {"class_name": "Zeros", "config": {}}, "gamma_initializer": {"class_name": "Ones", "config": {}}, "moving_mean_initializer": {"class_name": "Zeros", "config": {}}, "moving_variance_initializer": {"class_name": "Ones", "config": {}}, "beta_regularizer": null, "gamma_regularizer": null, "beta_constraint": null, "gamma_constraint": null}, "name": "batch_normalization_3658", "inbound_nodes": [[["conv2d_3369", 0, 0, {}]]]}, {"class_name": "Activation", "config": {"name": "activation_3656", "trainable": true, "dtype": "float32", "activation": "relu"}, "name": "activation_3656", "inbound_nodes": [[["batch_normalization_3656", 0, 0, {}]]]}, {"class_name": "Activation", "config": {"name": "activation_3657", "trainable": true, "dtype": "float32", "activation": "relu"}, "name": "activation_3657", "inbound_nodes": [[["batch_normalization_3657", 0, 0, {}]]]}, {"class_name": "Activation", "config": {"name": "activation_3658", "trainable": true, "dtype": "float32", "activation": "relu"}, "name": "activation_3658", "inbound_nodes": [[["batch_normalization_3658", 0, 0, {}]]]}, {"class_name": "Add", "config": {"name": "add_921", "trainable": true, "dtype": "float32"}, "name": "add_921", "inbound_nodes": [[["activation_3656", 0, 0, {}], ["activation_3657", 0, 0, {}], ["activation_3658", 0, 0, {}]]]}, {"class_name": "Concatenate", "config": {"name": "concatenate_1069", "trainable": true, "dtype": "float32", "axis": -1}, "name": "concatenate_1069", "inbound_nodes": [[["concatenate_1067", 0, 0, {}], ["concatenate_1068", 0, 0, {}], ["add_921", 0, 0, {}]]]}, {"class_name": "Conv2D", "config": {"name": "conv2d_3370", "trainable": true, "dtype": "float32", "filters": 64, "kernel_size": [1, 1], "strides": [1, 1], "padding": "same", "data_format": "channels_last", "dilation_rate": [1, 1], "groups": 1, "activation": "linear", "use_bias": true, "kernel_initializer": {"class_name": "GlorotUniform", "config": {"seed": null}}, "bias_initializer": {"class_name": "Zeros", "config": {}}, "kernel_regularizer": null, "bias_regularizer": null, "activity_regularizer": null, "kernel_constraint": null, "bias_constraint": null}, "name": "conv2d_3370", "inbound_nodes": [[["concatenate_1069", 0, 0, {}]]]}, {"class_name": "BatchNormalization", "config": {"name": "batch_normalization_3659", "trainable": true, "dtype": "float32", "axis": [3], "momentum": 0.99, "epsilon": 0.001, "center": true, "scale": true, "beta_initializer": {"class_name": "Zeros", "config": {}}, "gamma_initializer": {"class_name": "Ones", "config": {}}, "moving_mean_initializer": {"class_name": "Zeros", "config": {}}, "moving_variance_initializer": {"class_name": "Ones", "config": {}}, "beta_regularizer": null, "gamma_regularizer": null, "beta_constraint": null, "gamma_constraint": null}, "name": "batch_normalization_3659", "inbound_nodes": [[["conv2d_3370", 0, 0, {}]]]}, {"class_name": "Activation", "config": {"name": "activation_3659", "trainable": true, "dtype": "float32", "activation": "relu"}, "name": "activation_3659", "inbound_nodes": [[["batch_normalization_3659", 0, 0, {}]]]}, {"class_name": "Conv2DTranspose", "config": {"name": "conv2d_transpose_433", "trainable": true, "dtype": "float32", "filters": 21, "kernel_size": [4, 4], "strides": [2, 2], "padding": "same", "data_format": "channels_last", "dilation_rate": [1, 1], "groups": 1, "activation": "linear", "use_bias": true, "kernel_initializer": {"class_name": "GlorotUniform", "config": {"seed": null}}, "bias_initializer": {"class_name": "Zeros", "config": {}}, "kernel_regularizer": null, "bias_regularizer": null, "activity_regularizer": null, "kernel_constraint": null, "bias_constraint": null, "output_padding": null}, "name": "conv2d_transpose_433", "inbound_nodes": [[["activation_3659", 0, 0, {}]]]}, {"class_name": "BatchNormalization", "config": {"name": "batch_normalization_3660", "trainable": true, "dtype": "float32", "axis": [3], "momentum": 0.99, "epsilon": 0.001, "center": true, "scale": true, "beta_initializer": {"class_name": "Zeros", "config": {}}, "gamma_initializer": {"class_name": "Ones", "config": {}}, "moving_mean_initializer": {"class_name": "Zeros", "config": {}}, "moving_variance_initializer": {"class_name": "Ones", "config": {}}, "beta_regularizer": null, "gamma_regularizer": null, "beta_constraint": null, "gamma_constraint": null}, "name": "batch_normalization_3660", "inbound_nodes": [[["conv2d_transpose_433", 0, 0, {}]]]}, {"class_name": "Activation", "config": {"name": "activation_3660", "trainable": true, "dtype": "float32", "activation": "relu"}, "name": "activation_3660", "inbound_nodes": [[["batch_normalization_3660", 0, 0, {}]]]}, {"class_name": "Concatenate", "config": {"name": "concatenate_1070", "trainable": true, "dtype": "float32", "axis": -1}, "name": "concatenate_1070", "inbound_nodes": [[["activation_3637", 0, 0, {}], ["activation_3660", 0, 0, {}]]]}, {"class_name": "Conv2D", "config": {"name": "conv2d_3371", "trainable": true, "dtype": "float32", "filters": 21, "kernel_size": [3, 3], "strides": [1, 1], "padding": "same", "data_format": "channels_last", "dilation_rate": [1, 1], "groups": 1, "activation": "linear", "use_bias": true, "kernel_initializer": {"class_name": "GlorotUniform", "config": {"seed": null}}, "bias_initializer": {"class_name": "Zeros", "config": {}}, "kernel_regularizer": null, "bias_regularizer": null, "activity_regularizer": null, "kernel_constraint": null, "bias_constraint": null}, "name": "conv2d_3371", "inbound_nodes": [[["concatenate_1070", 0, 0, {}]]]}, {"class_name": "Conv2D", "config": {"name": "conv2d_3372", "trainable": true, "dtype": "float32", "filters": 21, "kernel_size": [6, 6], "strides": [1, 1], "padding": "same", "data_format": "channels_last", "dilation_rate": [1, 1], "groups": 1, "activation": "linear", "use_bias": true, "kernel_initializer": {"class_name": "GlorotUniform", "config": {"seed": null}}, "bias_initializer": {"class_name": "Zeros", "config": {}}, "kernel_regularizer": null, "bias_regularizer": null, "activity_regularizer": null, "kernel_constraint": null, "bias_constraint": null}, "name": "conv2d_3372", "inbound_nodes": [[["concatenate_1070", 0, 0, {}]]]}, {"class_name": "Conv2D", "config": {"name": "conv2d_3373", "trainable": true, "dtype": "float32", "filters": 21, "kernel_size": [9, 9], "strides": [1, 1], "padding": "same", "data_format": "channels_last", "dilation_rate": [1, 1], "groups": 1, "activation": "linear", "use_bias": true, "kernel_initializer": {"class_name": "GlorotUniform", "config": {"seed": null}}, "bias_initializer": {"class_name": "Zeros", "config": {}}, "kernel_regularizer": null, "bias_regularizer": null, "activity_regularizer": null, "kernel_constraint": null, "bias_constraint": null}, "name": "conv2d_3373", "inbound_nodes": [[["concatenate_1070", 0, 0, {}]]]}, {"class_name": "BatchNormalization", "config": {"name": "batch_normalization_3661", "trainable": true, "dtype": "float32", "axis": [3], "momentum": 0.99, "epsilon": 0.001, "center": true, "scale": true, "beta_initializer": {"class_name": "Zeros", "config": {}}, "gamma_initializer": {"class_name": "Ones", "config": {}}, "moving_mean_initializer": {"class_name": "Zeros", "config": {}}, "moving_variance_initializer": {"class_name": "Ones", "config": {}}, "beta_regularizer": null, "gamma_regularizer": null, "beta_constraint": null, "gamma_constraint": null}, "name": "batch_normalization_3661", "inbound_nodes": [[["conv2d_3371", 0, 0, {}]]]}, {"class_name": "BatchNormalization", "config": {"name": "batch_normalization_3662", "trainable": true, "dtype": "float32", "axis": [3], "momentum": 0.99, "epsilon": 0.001, "center": true, "scale": true, "beta_initializer": {"class_name": "Zeros", "config": {}}, "gamma_initializer": {"class_name": "Ones", "config": {}}, "moving_mean_initializer": {"class_name": "Zeros", "config": {}}, "moving_variance_initializer": {"class_name": "Ones", "config": {}}, "beta_regularizer": null, "gamma_regularizer": null, "beta_constraint": null, "gamma_constraint": null}, "name": "batch_normalization_3662", "inbound_nodes": [[["conv2d_3372", 0, 0, {}]]]}, {"class_name": "BatchNormalization", "config": {"name": "batch_normalization_3663", "trainable": true, "dtype": "float32", "axis": [3], "momentum": 0.99, "epsilon": 0.001, "center": true, "scale": true, "beta_initializer": {"class_name": "Zeros", "config": {}}, "gamma_initializer": {"class_name": "Ones", "config": {}}, "moving_mean_initializer": {"class_name": "Zeros", "config": {}}, "moving_variance_initializer": {"class_name": "Ones", "config": {}}, "beta_regularizer": null, "gamma_regularizer": null, "beta_constraint": null, "gamma_constraint": null}, "name": "batch_normalization_3663", "inbound_nodes": [[["conv2d_3373", 0, 0, {}]]]}, {"class_name": "Activation", "config": {"name": "activation_3661", "trainable": true, "dtype": "float32", "activation": "relu"}, "name": "activation_3661", "inbound_nodes": [[["batch_normalization_3661", 0, 0, {}]]]}, {"class_name": "Activation", "config": {"name": "activation_3662", "trainable": true, "dtype": "float32", "activation": "relu"}, "name": "activation_3662", "inbound_nodes": [[["batch_normalization_3662", 0, 0, {}]]]}, {"class_name": "Activation", "config": {"name": "activation_3663", "trainable": true, "dtype": "float32", "activation": "relu"}, "name": "activation_3663", "inbound_nodes": [[["batch_normalization_3663", 0, 0, {}]]]}, {"class_name": "Add", "config": {"name": "add_922", "trainable": true, "dtype": "float32"}, "name": "add_922", "inbound_nodes": [[["activation_3661", 0, 0, {}], ["activation_3662", 0, 0, {}], ["activation_3663", 0, 0, {}]]]}, {"class_name": "Concatenate", "config": {"name": "concatenate_1071", "trainable": true, "dtype": "float32", "axis": -1}, "name": "concatenate_1071", "inbound_nodes": [[["concatenate_1070", 0, 0, {}], ["add_922", 0, 0, {}]]]}, {"class_name": "Conv2D", "config": {"name": "conv2d_3374", "trainable": true, "dtype": "float32", "filters": 21, "kernel_size": [3, 3], "strides": [1, 1], "padding": "same", "data_format": "channels_last", "dilation_rate": [1, 1], "groups": 1, "activation": "linear", "use_bias": true, "kernel_initializer": {"class_name": "GlorotUniform", "config": {"seed": null}}, "bias_initializer": {"class_name": "Zeros", "config": {}}, "kernel_regularizer": null, "bias_regularizer": null, "activity_regularizer": null, "kernel_constraint": null, "bias_constraint": null}, "name": "conv2d_3374", "inbound_nodes": [[["concatenate_1071", 0, 0, {}]]]}, {"class_name": "Conv2D", "config": {"name": "conv2d_3375", "trainable": true, "dtype": "float32", "filters": 21, "kernel_size": [6, 6], "strides": [1, 1], "padding": "same", "data_format": "channels_last", "dilation_rate": [1, 1], "groups": 1, "activation": "linear", "use_bias": true, "kernel_initializer": {"class_name": "GlorotUniform", "config": {"seed": null}}, "bias_initializer": {"class_name": "Zeros", "config": {}}, "kernel_regularizer": null, "bias_regularizer": null, "activity_regularizer": null, "kernel_constraint": null, "bias_constraint": null}, "name": "conv2d_3375", "inbound_nodes": [[["concatenate_1071", 0, 0, {}]]]}, {"class_name": "Conv2D", "config": {"name": "conv2d_3376", "trainable": true, "dtype": "float32", "filters": 21, "kernel_size": [9, 9], "strides": [1, 1], "padding": "same", "data_format": "channels_last", "dilation_rate": [1, 1], "groups": 1, "activation": "linear", "use_bias": true, "kernel_initializer": {"class_name": "GlorotUniform", "config": {"seed": null}}, "bias_initializer": {"class_name": "Zeros", "config": {}}, "kernel_regularizer": null, "bias_regularizer": null, "activity_regularizer": null, "kernel_constraint": null, "bias_constraint": null}, "name": "conv2d_3376", "inbound_nodes": [[["concatenate_1071", 0, 0, {}]]]}, {"class_name": "BatchNormalization", "config": {"name": "batch_normalization_3664", "trainable": true, "dtype": "float32", "axis": [3], "momentum": 0.99, "epsilon": 0.001, "center": true, "scale": true, "beta_initializer": {"class_name": "Zeros", "config": {}}, "gamma_initializer": {"class_name": "Ones", "config": {}}, "moving_mean_initializer": {"class_name": "Zeros", "config": {}}, "moving_variance_initializer": {"class_name": "Ones", "config": {}}, "beta_regularizer": null, "gamma_regularizer": null, "beta_constraint": null, "gamma_constraint": null}, "name": "batch_normalization_3664", "inbound_nodes": [[["conv2d_3374", 0, 0, {}]]]}, {"class_name": "BatchNormalization", "config": {"name": "batch_normalization_3665", "trainable": true, "dtype": "float32", "axis": [3], "momentum": 0.99, "epsilon": 0.001, "center": true, "scale": true, "beta_initializer": {"class_name": "Zeros", "config": {}}, "gamma_initializer": {"class_name": "Ones", "config": {}}, "moving_mean_initializer": {"class_name": "Zeros", "config": {}}, "moving_variance_initializer": {"class_name": "Ones", "config": {}}, "beta_regularizer": null, "gamma_regularizer": null, "beta_constraint": null, "gamma_constraint": null}, "name": "batch_normalization_3665", "inbound_nodes": [[["conv2d_3375", 0, 0, {}]]]}, {"class_name": "BatchNormalization", "config": {"name": "batch_normalization_3666", "trainable": true, "dtype": "float32", "axis": [3], "momentum": 0.99, "epsilon": 0.001, "center": true, "scale": true, "beta_initializer": {"class_name": "Zeros", "config": {}}, "gamma_initializer": {"class_name": "Ones", "config": {}}, "moving_mean_initializer": {"class_name": "Zeros", "config": {}}, "moving_variance_initializer": {"class_name": "Ones", "config": {}}, "beta_regularizer": null, "gamma_regularizer": null, "beta_constraint": null, "gamma_constraint": null}, "name": "batch_normalization_3666", "inbound_nodes": [[["conv2d_3376", 0, 0, {}]]]}, {"class_name": "Activation", "config": {"name": "activation_3664", "trainable": true, "dtype": "float32", "activation": "relu"}, "name": "activation_3664", "inbound_nodes": [[["batch_normalization_3664", 0, 0, {}]]]}, {"class_name": "Activation", "config": {"name": "activation_3665", "trainable": true, "dtype": "float32", "activation": "relu"}, "name": "activation_3665", "inbound_nodes": [[["batch_normalization_3665", 0, 0, {}]]]}, {"class_name": "Activation", "config": {"name": "activation_3666", "trainable": true, "dtype": "float32", "activation": "relu"}, "name": "activation_3666", "inbound_nodes": [[["batch_normalization_3666", 0, 0, {}]]]}, {"class_name": "Add", "config": {"name": "add_923", "trainable": true, "dtype": "float32"}, "name": "add_923", "inbound_nodes": [[["activation_3664", 0, 0, {}], ["activation_3665", 0, 0, {}], ["activation_3666", 0, 0, {}]]]}, {"class_name": "Concatenate", "config": {"name": "concatenate_1072", "trainable": true, "dtype": "float32", "axis": -1}, "name": "concatenate_1072", "inbound_nodes": [[["concatenate_1070", 0, 0, {}], ["concatenate_1071", 0, 0, {}], ["add_923", 0, 0, {}]]]}, {"class_name": "Conv2D", "config": {"name": "conv2d_3377", "trainable": true, "dtype": "float32", "filters": 64, "kernel_size": [1, 1], "strides": [1, 1], "padding": "same", "data_format": "channels_last", "dilation_rate": [1, 1], "groups": 1, "activation": "linear", "use_bias": true, "kernel_initializer": {"class_name": "GlorotUniform", "config": {"seed": null}}, "bias_initializer": {"class_name": "Zeros", "config": {}}, "kernel_regularizer": null, "bias_regularizer": null, "activity_regularizer": null, "kernel_constraint": null, "bias_constraint": null}, "name": "conv2d_3377", "inbound_nodes": [[["concatenate_1072", 0, 0, {}]]]}, {"class_name": "BatchNormalization", "config": {"name": "batch_normalization_3667", "trainable": true, "dtype": "float32", "axis": [3], "momentum": 0.99, "epsilon": 0.001, "center": true, "scale": true, "beta_initializer": {"class_name": "Zeros", "config": {}}, "gamma_initializer": {"class_name": "Ones", "config": {}}, "moving_mean_initializer": {"class_name": "Zeros", "config": {}}, "moving_variance_initializer": {"class_name": "Ones", "config": {}}, "beta_regularizer": null, "gamma_regularizer": null, "beta_constraint": null, "gamma_constraint": null}, "name": "batch_normalization_3667", "inbound_nodes": [[["conv2d_3377", 0, 0, {}]]]}, {"class_name": "Activation", "config": {"name": "activation_3667", "trainable": true, "dtype": "float32", "activation": "relu"}, "name": "activation_3667", "inbound_nodes": [[["batch_normalization_3667", 0, 0, {}]]]}, {"class_name": "Conv2DTranspose", "config": {"name": "conv2d_transpose_434", "trainable": true, "dtype": "float32", "filters": 21, "kernel_size": [4, 4], "strides": [2, 2], "padding": "same", "data_format": "channels_last", "dilation_rate": [1, 1], "groups": 1, "activation": "linear", "use_bias": true, "kernel_initializer": {"class_name": "GlorotUniform", "config": {"seed": null}}, "bias_initializer": {"class_name": "Zeros", "config": {}}, "kernel_regularizer": null, "bias_regularizer": null, "activity_regularizer": null, "kernel_constraint": null, "bias_constraint": null, "output_padding": null}, "name": "conv2d_transpose_434", "inbound_nodes": [[["activation_3667", 0, 0, {}]]]}, {"class_name": "BatchNormalization", "config": {"name": "batch_normalization_3668", "trainable": true, "dtype": "float32", "axis": [3], "momentum": 0.99, "epsilon": 0.001, "center": true, "scale": true, "beta_initializer": {"class_name": "Zeros", "config": {}}, "gamma_initializer": {"class_name": "Ones", "config": {}}, "moving_mean_initializer": {"class_name": "Zeros", "config": {}}, "moving_variance_initializer": {"class_name": "Ones", "config": {}}, "beta_regularizer": null, "gamma_regularizer": null, "beta_constraint": null, "gamma_constraint": null}, "name": "batch_normalization_3668", "inbound_nodes": [[["conv2d_transpose_434", 0, 0, {}]]]}, {"class_name": "Activation", "config": {"name": "activation_3668", "trainable": true, "dtype": "float32", "activation": "relu"}, "name": "activation_3668", "inbound_nodes": [[["batch_normalization_3668", 0, 0, {}]]]}, {"class_name": "Concatenate", "config": {"name": "concatenate_1073", "trainable": true, "dtype": "float32", "axis": -1}, "name": "concatenate_1073", "inbound_nodes": [[["activation_3630", 0, 0, {}], ["activation_3668", 0, 0, {}]]]}, {"class_name": "Conv2D", "config": {"name": "conv2d_3378", "trainable": true, "dtype": "float32", "filters": 21, "kernel_size": [3, 3], "strides": [1, 1], "padding": "same", "data_format": "channels_last", "dilation_rate": [1, 1], "groups": 1, "activation": "linear", "use_bias": true, "kernel_initializer": {"class_name": "GlorotUniform", "config": {"seed": null}}, "bias_initializer": {"class_name": "Zeros", "config": {}}, "kernel_regularizer": null, "bias_regularizer": null, "activity_regularizer": null, "kernel_constraint": null, "bias_constraint": null}, "name": "conv2d_3378", "inbound_nodes": [[["concatenate_1073", 0, 0, {}]]]}, {"class_name": "Conv2D", "config": {"name": "conv2d_3379", "trainable": true, "dtype": "float32", "filters": 21, "kernel_size": [6, 6], "strides": [1, 1], "padding": "same", "data_format": "channels_last", "dilation_rate": [1, 1], "groups": 1, "activation": "linear", "use_bias": true, "kernel_initializer": {"class_name": "GlorotUniform", "config": {"seed": null}}, "bias_initializer": {"class_name": "Zeros", "config": {}}, "kernel_regularizer": null, "bias_regularizer": null, "activity_regularizer": null, "kernel_constraint": null, "bias_constraint": null}, "name": "conv2d_3379", "inbound_nodes": [[["concatenate_1073", 0, 0, {}]]]}, {"class_name": "Conv2D", "config": {"name": "conv2d_3380", "trainable": true, "dtype": "float32", "filters": 21, "kernel_size": [9, 9], "strides": [1, 1], "padding": "same", "data_format": "channels_last", "dilation_rate": [1, 1], "groups": 1, "activation": "linear", "use_bias": true, "kernel_initializer": {"class_name": "GlorotUniform", "config": {"seed": null}}, "bias_initializer": {"class_name": "Zeros", "config": {}}, "kernel_regularizer": null, "bias_regularizer": null, "activity_regularizer": null, "kernel_constraint": null, "bias_constraint": null}, "name": "conv2d_3380", "inbound_nodes": [[["concatenate_1073", 0, 0, {}]]]}, {"class_name": "BatchNormalization", "config": {"name": "batch_normalization_3669", "trainable": true, "dtype": "float32", "axis": [3], "momentum": 0.99, "epsilon": 0.001, "center": true, "scale": true, "beta_initializer": {"class_name": "Zeros", "config": {}}, "gamma_initializer": {"class_name": "Ones", "config": {}}, "moving_mean_initializer": {"class_name": "Zeros", "config": {}}, "moving_variance_initializer": {"class_name": "Ones", "config": {}}, "beta_regularizer": null, "gamma_regularizer": null, "beta_constraint": null, "gamma_constraint": null}, "name": "batch_normalization_3669", "inbound_nodes": [[["conv2d_3378", 0, 0, {}]]]}, {"class_name": "BatchNormalization", "config": {"name": "batch_normalization_3670", "trainable": true, "dtype": "float32", "axis": [3], "momentum": 0.99, "epsilon": 0.001, "center": true, "scale": true, "beta_initializer": {"class_name": "Zeros", "config": {}}, "gamma_initializer": {"class_name": "Ones", "config": {}}, "moving_mean_initializer": {"class_name": "Zeros", "config": {}}, "moving_variance_initializer": {"class_name": "Ones", "config": {}}, "beta_regularizer": null, "gamma_regularizer": null, "beta_constraint": null, "gamma_constraint": null}, "name": "batch_normalization_3670", "inbound_nodes": [[["conv2d_3379", 0, 0, {}]]]}, {"class_name": "BatchNormalization", "config": {"name": "batch_normalization_3671", "trainable": true, "dtype": "float32", "axis": [3], "momentum": 0.99, "epsilon": 0.001, "center": true, "scale": true, "beta_initializer": {"class_name": "Zeros", "config": {}}, "gamma_initializer": {"class_name": "Ones", "config": {}}, "moving_mean_initializer": {"class_name": "Zeros", "config": {}}, "moving_variance_initializer": {"class_name": "Ones", "config": {}}, "beta_regularizer": null, "gamma_regularizer": null, "beta_constraint": null, "gamma_constraint": null}, "name": "batch_normalization_3671", "inbound_nodes": [[["conv2d_3380", 0, 0, {}]]]}, {"class_name": "Activation", "config": {"name": "activation_3669", "trainable": true, "dtype": "float32", "activation": "relu"}, "name": "activation_3669", "inbound_nodes": [[["batch_normalization_3669", 0, 0, {}]]]}, {"class_name": "Activation", "config": {"name": "activation_3670", "trainable": true, "dtype": "float32", "activation": "relu"}, "name": "activation_3670", "inbound_nodes": [[["batch_normalization_3670", 0, 0, {}]]]}, {"class_name": "Activation", "config": {"name": "activation_3671", "trainable": true, "dtype": "float32", "activation": "relu"}, "name": "activation_3671", "inbound_nodes": [[["batch_normalization_3671", 0, 0, {}]]]}, {"class_name": "Add", "config": {"name": "add_924", "trainable": true, "dtype": "float32"}, "name": "add_924", "inbound_nodes": [[["activation_3669", 0, 0, {}], ["activation_3670", 0, 0, {}], ["activation_3671", 0, 0, {}]]]}, {"class_name": "Concatenate", "config": {"name": "concatenate_1074", "trainable": true, "dtype": "float32", "axis": -1}, "name": "concatenate_1074", "inbound_nodes": [[["concatenate_1073", 0, 0, {}], ["add_924", 0, 0, {}]]]}, {"class_name": "Conv2D", "config": {"name": "conv2d_3381", "trainable": true, "dtype": "float32", "filters": 21, "kernel_size": [3, 3], "strides": [1, 1], "padding": "same", "data_format": "channels_last", "dilation_rate": [1, 1], "groups": 1, "activation": "linear", "use_bias": true, "kernel_initializer": {"class_name": "GlorotUniform", "config": {"seed": null}}, "bias_initializer": {"class_name": "Zeros", "config": {}}, "kernel_regularizer": null, "bias_regularizer": null, "activity_regularizer": null, "kernel_constraint": null, "bias_constraint": null}, "name": "conv2d_3381", "inbound_nodes": [[["concatenate_1074", 0, 0, {}]]]}, {"class_name": "Conv2D", "config": {"name": "conv2d_3382", "trainable": true, "dtype": "float32", "filters": 21, "kernel_size": [6, 6], "strides": [1, 1], "padding": "same", "data_format": "channels_last", "dilation_rate": [1, 1], "groups": 1, "activation": "linear", "use_bias": true, "kernel_initializer": {"class_name": "GlorotUniform", "config": {"seed": null}}, "bias_initializer": {"class_name": "Zeros", "config": {}}, "kernel_regularizer": null, "bias_regularizer": null, "activity_regularizer": null, "kernel_constraint": null, "bias_constraint": null}, "name": "conv2d_3382", "inbound_nodes": [[["concatenate_1074", 0, 0, {}]]]}, {"class_name": "Conv2D", "config": {"name": "conv2d_3383", "trainable": true, "dtype": "float32", "filters": 21, "kernel_size": [9, 9], "strides": [1, 1], "padding": "same", "data_format": "channels_last", "dilation_rate": [1, 1], "groups": 1, "activation": "linear", "use_bias": true, "kernel_initializer": {"class_name": "GlorotUniform", "config": {"seed": null}}, "bias_initializer": {"class_name": "Zeros", "config": {}}, "kernel_regularizer": null, "bias_regularizer": null, "activity_regularizer": null, "kernel_constraint": null, "bias_constraint": null}, "name": "conv2d_3383", "inbound_nodes": [[["concatenate_1074", 0, 0, {}]]]}, {"class_name": "BatchNormalization", "config": {"name": "batch_normalization_3672", "trainable": true, "dtype": "float32", "axis": [3], "momentum": 0.99, "epsilon": 0.001, "center": true, "scale": true, "beta_initializer": {"class_name": "Zeros", "config": {}}, "gamma_initializer": {"class_name": "Ones", "config": {}}, "moving_mean_initializer": {"class_name": "Zeros", "config": {}}, "moving_variance_initializer": {"class_name": "Ones", "config": {}}, "beta_regularizer": null, "gamma_regularizer": null, "beta_constraint": null, "gamma_constraint": null}, "name": "batch_normalization_3672", "inbound_nodes": [[["conv2d_3381", 0, 0, {}]]]}, {"class_name": "BatchNormalization", "config": {"name": "batch_normalization_3673", "trainable": true, "dtype": "float32", "axis": [3], "momentum": 0.99, "epsilon": 0.001, "center": true, "scale": true, "beta_initializer": {"class_name": "Zeros", "config": {}}, "gamma_initializer": {"class_name": "Ones", "config": {}}, "moving_mean_initializer": {"class_name": "Zeros", "config": {}}, "moving_variance_initializer": {"class_name": "Ones", "config": {}}, "beta_regularizer": null, "gamma_regularizer": null, "beta_constraint": null, "gamma_constraint": null}, "name": "batch_normalization_3673", "inbound_nodes": [[["conv2d_3382", 0, 0, {}]]]}, {"class_name": "BatchNormalization", "config": {"name": "batch_normalization_3674", "trainable": true, "dtype": "float32", "axis": [3], "momentum": 0.99, "epsilon": 0.001, "center": true, "scale": true, "beta_initializer": {"class_name": "Zeros", "config": {}}, "gamma_initializer": {"class_name": "Ones", "config": {}}, "moving_mean_initializer": {"class_name": "Zeros", "config": {}}, "moving_variance_initializer": {"class_name": "Ones", "config": {}}, "beta_regularizer": null, "gamma_regularizer": null, "beta_constraint": null, "gamma_constraint": null}, "name": "batch_normalization_3674", "inbound_nodes": [[["conv2d_3383", 0, 0, {}]]]}, {"class_name": "Activation", "config": {"name": "activation_3672", "trainable": true, "dtype": "float32", "activation": "relu"}, "name": "activation_3672", "inbound_nodes": [[["batch_normalization_3672", 0, 0, {}]]]}, {"class_name": "Activation", "config": {"name": "activation_3673", "trainable": true, "dtype": "float32", "activation": "relu"}, "name": "activation_3673", "inbound_nodes": [[["batch_normalization_3673", 0, 0, {}]]]}, {"class_name": "Activation", "config": {"name": "activation_3674", "trainable": true, "dtype": "float32", "activation": "relu"}, "name": "activation_3674", "inbound_nodes": [[["batch_normalization_3674", 0, 0, {}]]]}, {"class_name": "Add", "config": {"name": "add_925", "trainable": true, "dtype": "float32"}, "name": "add_925", "inbound_nodes": [[["activation_3672", 0, 0, {}], ["activation_3673", 0, 0, {}], ["activation_3674", 0, 0, {}]]]}, {"class_name": "Concatenate", "config": {"name": "concatenate_1075", "trainable": true, "dtype": "float32", "axis": -1}, "name": "concatenate_1075", "inbound_nodes": [[["concatenate_1073", 0, 0, {}], ["concatenate_1074", 0, 0, {}], ["add_925", 0, 0, {}]]]}, {"class_name": "Conv2D", "config": {"name": "conv2d_3384", "trainable": true, "dtype": "float32", "filters": 64, "kernel_size": [1, 1], "strides": [1, 1], "padding": "same", "data_format": "channels_last", "dilation_rate": [1, 1], "groups": 1, "activation": "linear", "use_bias": true, "kernel_initializer": {"class_name": "GlorotUniform", "config": {"seed": null}}, "bias_initializer": {"class_name": "Zeros", "config": {}}, "kernel_regularizer": null, "bias_regularizer": null, "activity_regularizer": null, "kernel_constraint": null, "bias_constraint": null}, "name": "conv2d_3384", "inbound_nodes": [[["concatenate_1075", 0, 0, {}]]]}, {"class_name": "BatchNormalization", "config": {"name": "batch_normalization_3675", "trainable": true, "dtype": "float32", "axis": [3], "momentum": 0.99, "epsilon": 0.001, "center": true, "scale": true, "beta_initializer": {"class_name": "Zeros", "config": {}}, "gamma_initializer": {"class_name": "Ones", "config": {}}, "moving_mean_initializer": {"class_name": "Zeros", "config": {}}, "moving_variance_initializer": {"class_name": "Ones", "config": {}}, "beta_regularizer": null, "gamma_regularizer": null, "beta_constraint": null, "gamma_constraint": null}, "name": "batch_normalization_3675", "inbound_nodes": [[["conv2d_3384", 0, 0, {}]]]}, {"class_name": "Activation", "config": {"name": "activation_3675", "trainable": true, "dtype": "float32", "activation": "relu"}, "name": "activation_3675", "inbound_nodes": [[["batch_normalization_3675", 0, 0, {}]]]}, {"class_name": "Conv2D", "config": {"name": "conv2d_3385", "trainable": true, "dtype": "float32", "filters": 3, "kernel_size": [1, 1], "strides": [1, 1], "padding": "same", "data_format": "channels_last", "dilation_rate": [1, 1], "groups": 1, "activation": "relu", "use_bias": true, "kernel_initializer": {"class_name": "GlorotUniform", "config": {"seed": null}}, "bias_initializer": {"class_name": "Zeros", "config": {}}, "kernel_regularizer": null, "bias_regularizer": null, "activity_regularizer": null, "kernel_constraint": null, "bias_constraint": null}, "name": "conv2d_3385", "inbound_nodes": [[["activation_3675", 0, 0, {}]]]}, {"class_name": "Conv2D", "config": {"name": "conv2d_3386", "trainable": true, "dtype": "float32", "filters": 21, "kernel_size": [3, 3], "strides": [1, 1], "padding": "same", "data_format": "channels_last", "dilation_rate": [1, 1], "groups": 1, "activation": "linear", "use_bias": true, "kernel_initializer": {"class_name": "GlorotUniform", "config": {"seed": null}}, "bias_initializer": {"class_name": "Zeros", "config": {}}, "kernel_regularizer": null, "bias_regularizer": null, "activity_regularizer": null, "kernel_constraint": null, "bias_constraint": null}, "name": "conv2d_3386", "inbound_nodes": [[["conv2d_3385", 0, 0, {}]]]}, {"class_name": "Conv2D", "config": {"name": "conv2d_3387", "trainable": true, "dtype": "float32", "filters": 21, "kernel_size": [6, 6], "strides": [1, 1], "padding": "same", "data_format": "channels_last", "dilation_rate": [1, 1], "groups": 1, "activation": "linear", "use_bias": true, "kernel_initializer": {"class_name": "GlorotUniform", "config": {"seed": null}}, "bias_initializer": {"class_name": "Zeros", "config": {}}, "kernel_regularizer": null, "bias_regularizer": null, "activity_regularizer": null, "kernel_constraint": null, "bias_constraint": null}, "name": "conv2d_3387", "inbound_nodes": [[["conv2d_3385", 0, 0, {}]]]}, {"class_name": "Conv2D", "config": {"name": "conv2d_3388", "trainable": true, "dtype": "float32", "filters": 21, "kernel_size": [9, 9], "strides": [1, 1], "padding": "same", "data_format": "channels_last", "dilation_rate": [1, 1], "groups": 1, "activation": "linear", "use_bias": true, "kernel_initializer": {"class_name": "GlorotUniform", "config": {"seed": null}}, "bias_initializer": {"class_name": "Zeros", "config": {}}, "kernel_regularizer": null, "bias_regularizer": null, "activity_regularizer": null, "kernel_constraint": null, "bias_constraint": null}, "name": "conv2d_3388", "inbound_nodes": [[["conv2d_3385", 0, 0, {}]]]}, {"class_name": "BatchNormalization", "config": {"name": "batch_normalization_3676", "trainable": true, "dtype": "float32", "axis": [3], "momentum": 0.99, "epsilon": 0.001, "center": true, "scale": true, "beta_initializer": {"class_name": "Zeros", "config": {}}, "gamma_initializer": {"class_name": "Ones", "config": {}}, "moving_mean_initializer": {"class_name": "Zeros", "config": {}}, "moving_variance_initializer": {"class_name": "Ones", "config": {}}, "beta_regularizer": null, "gamma_regularizer": null, "beta_constraint": null, "gamma_constraint": null}, "name": "batch_normalization_3676", "inbound_nodes": [[["conv2d_3386", 0, 0, {}]]]}, {"class_name": "BatchNormalization", "config": {"name": "batch_normalization_3677", "trainable": true, "dtype": "float32", "axis": [3], "momentum": 0.99, "epsilon": 0.001, "center": true, "scale": true, "beta_initializer": {"class_name": "Zeros", "config": {}}, "gamma_initializer": {"class_name": "Ones", "config": {}}, "moving_mean_initializer": {"class_name": "Zeros", "config": {}}, "moving_variance_initializer": {"class_name": "Ones", "config": {}}, "beta_regularizer": null, "gamma_regularizer": null, "beta_constraint": null, "gamma_constraint": null}, "name": "batch_normalization_3677", "inbound_nodes": [[["conv2d_3387", 0, 0, {}]]]}, {"class_name": "BatchNormalization", "config": {"name": "batch_normalization_3678", "trainable": true, "dtype": "float32", "axis": [3], "momentum": 0.99, "epsilon": 0.001, "center": true, "scale": true, "beta_initializer": {"class_name": "Zeros", "config": {}}, "gamma_initializer": {"class_name": "Ones", "config": {}}, "moving_mean_initializer": {"class_name": "Zeros", "config": {}}, "moving_variance_initializer": {"class_name": "Ones", "config": {}}, "beta_regularizer": null, "gamma_regularizer": null, "beta_constraint": null, "gamma_constraint": null}, "name": "batch_normalization_3678", "inbound_nodes": [[["conv2d_3388", 0, 0, {}]]]}, {"class_name": "Activation", "config": {"name": "activation_3676", "trainable": true, "dtype": "float32", "activation": "relu"}, "name": "activation_3676", "inbound_nodes": [[["batch_normalization_3676", 0, 0, {}]]]}, {"class_name": "Activation", "config": {"name": "activation_3677", "trainable": true, "dtype": "float32", "activation": "relu"}, "name": "activation_3677", "inbound_nodes": [[["batch_normalization_3677", 0, 0, {}]]]}, {"class_name": "Activation", "config": {"name": "activation_3678", "trainable": true, "dtype": "float32", "activation": "relu"}, "name": "activation_3678", "inbound_nodes": [[["batch_normalization_3678", 0, 0, {}]]]}, {"class_name": "Add", "config": {"name": "add_926", "trainable": true, "dtype": "float32"}, "name": "add_926", "inbound_nodes": [[["activation_3676", 0, 0, {}], ["activation_3677", 0, 0, {}], ["activation_3678", 0, 0, {}]]]}, {"class_name": "Concatenate", "config": {"name": "concatenate_1076", "trainable": true, "dtype": "float32", "axis": -1}, "name": "concatenate_1076", "inbound_nodes": [[["conv2d_3385", 0, 0, {}], ["add_926", 0, 0, {}]]]}, {"class_name": "Conv2D", "config": {"name": "conv2d_3389", "trainable": true, "dtype": "float32", "filters": 21, "kernel_size": [3, 3], "strides": [1, 1], "padding": "same", "data_format": "channels_last", "dilation_rate": [1, 1], "groups": 1, "activation": "linear", "use_bias": true, "kernel_initializer": {"class_name": "GlorotUniform", "config": {"seed": null}}, "bias_initializer": {"class_name": "Zeros", "config": {}}, "kernel_regularizer": null, "bias_regularizer": null, "activity_regularizer": null, "kernel_constraint": null, "bias_constraint": null}, "name": "conv2d_3389", "inbound_nodes": [[["concatenate_1076", 0, 0, {}]]]}, {"class_name": "Conv2D", "config": {"name": "conv2d_3390", "trainable": true, "dtype": "float32", "filters": 21, "kernel_size": [6, 6], "strides": [1, 1], "padding": "same", "data_format": "channels_last", "dilation_rate": [1, 1], "groups": 1, "activation": "linear", "use_bias": true, "kernel_initializer": {"class_name": "GlorotUniform", "config": {"seed": null}}, "bias_initializer": {"class_name": "Zeros", "config": {}}, "kernel_regularizer": null, "bias_regularizer": null, "activity_regularizer": null, "kernel_constraint": null, "bias_constraint": null}, "name": "conv2d_3390", "inbound_nodes": [[["concatenate_1076", 0, 0, {}]]]}, {"class_name": "Conv2D", "config": {"name": "conv2d_3391", "trainable": true, "dtype": "float32", "filters": 21, "kernel_size": [9, 9], "strides": [1, 1], "padding": "same", "data_format": "channels_last", "dilation_rate": [1, 1], "groups": 1, "activation": "linear", "use_bias": true, "kernel_initializer": {"class_name": "GlorotUniform", "config": {"seed": null}}, "bias_initializer": {"class_name": "Zeros", "config": {}}, "kernel_regularizer": null, "bias_regularizer": null, "activity_regularizer": null, "kernel_constraint": null, "bias_constraint": null}, "name": "conv2d_3391", "inbound_nodes": [[["concatenate_1076", 0, 0, {}]]]}, {"class_name": "BatchNormalization", "config": {"name": "batch_normalization_3679", "trainable": true, "dtype": "float32", "axis": [3], "momentum": 0.99, "epsilon": 0.001, "center": true, "scale": true, "beta_initializer": {"class_name": "Zeros", "config": {}}, "gamma_initializer": {"class_name": "Ones", "config": {}}, "moving_mean_initializer": {"class_name": "Zeros", "config": {}}, "moving_variance_initializer": {"class_name": "Ones", "config": {}}, "beta_regularizer": null, "gamma_regularizer": null, "beta_constraint": null, "gamma_constraint": null}, "name": "batch_normalization_3679", "inbound_nodes": [[["conv2d_3389", 0, 0, {}]]]}, {"class_name": "BatchNormalization", "config": {"name": "batch_normalization_3680", "trainable": true, "dtype": "float32", "axis": [3], "momentum": 0.99, "epsilon": 0.001, "center": true, "scale": true, "beta_initializer": {"class_name": "Zeros", "config": {}}, "gamma_initializer": {"class_name": "Ones", "config": {}}, "moving_mean_initializer": {"class_name": "Zeros", "config": {}}, "moving_variance_initializer": {"class_name": "Ones", "config": {}}, "beta_regularizer": null, "gamma_regularizer": null, "beta_constraint": null, "gamma_constraint": null}, "name": "batch_normalization_3680", "inbound_nodes": [[["conv2d_3390", 0, 0, {}]]]}, {"class_name": "BatchNormalization", "config": {"name": "batch_normalization_3681", "trainable": true, "dtype": "float32", "axis": [3], "momentum": 0.99, "epsilon": 0.001, "center": true, "scale": true, "beta_initializer": {"class_name": "Zeros", "config": {}}, "gamma_initializer": {"class_name": "Ones", "config": {}}, "moving_mean_initializer": {"class_name": "Zeros", "config": {}}, "moving_variance_initializer": {"class_name": "Ones", "config": {}}, "beta_regularizer": null, "gamma_regularizer": null, "beta_constraint": null, "gamma_constraint": null}, "name": "batch_normalization_3681", "inbound_nodes": [[["conv2d_3391", 0, 0, {}]]]}, {"class_name": "Activation", "config": {"name": "activation_3679", "trainable": true, "dtype": "float32", "activation": "relu"}, "name": "activation_3679", "inbound_nodes": [[["batch_normalization_3679", 0, 0, {}]]]}, {"class_name": "Activation", "config": {"name": "activation_3680", "trainable": true, "dtype": "float32", "activation": "relu"}, "name": "activation_3680", "inbound_nodes": [[["batch_normalization_3680", 0, 0, {}]]]}, {"class_name": "Activation", "config": {"name": "activation_3681", "trainable": true, "dtype": "float32", "activation": "relu"}, "name": "activation_3681", "inbound_nodes": [[["batch_normalization_3681", 0, 0, {}]]]}, {"class_name": "Add", "config": {"name": "add_927", "trainable": true, "dtype": "float32"}, "name": "add_927", "inbound_nodes": [[["activation_3679", 0, 0, {}], ["activation_3680", 0, 0, {}], ["activation_3681", 0, 0, {}]]]}, {"class_name": "Concatenate", "config": {"name": "concatenate_1077", "trainable": true, "dtype": "float32", "axis": -1}, "name": "concatenate_1077", "inbound_nodes": [[["conv2d_3385", 0, 0, {}], ["concatenate_1076", 0, 0, {}], ["add_927", 0, 0, {}]]]}, {"class_name": "Conv2D", "config": {"name": "conv2d_3392", "trainable": true, "dtype": "float32", "filters": 64, "kernel_size": [1, 1], "strides": [1, 1], "padding": "same", "data_format": "channels_last", "dilation_rate": [1, 1], "groups": 1, "activation": "linear", "use_bias": true, "kernel_initializer": {"class_name": "GlorotUniform", "config": {"seed": null}}, "bias_initializer": {"class_name": "Zeros", "config": {}}, "kernel_regularizer": null, "bias_regularizer": null, "activity_regularizer": null, "kernel_constraint": null, "bias_constraint": null}, "name": "conv2d_3392", "inbound_nodes": [[["concatenate_1077", 0, 0, {}]]]}, {"class_name": "BatchNormalization", "config": {"name": "batch_normalization_3682", "trainable": true, "dtype": "float32", "axis": [3], "momentum": 0.99, "epsilon": 0.001, "center": true, "scale": true, "beta_initializer": {"class_name": "Zeros", "config": {}}, "gamma_initializer": {"class_name": "Ones", "config": {}}, "moving_mean_initializer": {"class_name": "Zeros", "config": {}}, "moving_variance_initializer": {"class_name": "Ones", "config": {}}, "beta_regularizer": null, "gamma_regularizer": null, "beta_constraint": null, "gamma_constraint": null}, "name": "batch_normalization_3682", "inbound_nodes": [[["conv2d_3392", 0, 0, {}]]]}, {"class_name": "Activation", "config": {"name": "activation_3682", "trainable": true, "dtype": "float32", "activation": "relu"}, "name": "activation_3682", "inbound_nodes": [[["batch_normalization_3682", 0, 0, {}]]]}, {"class_name": "MaxPooling2D", "config": {"name": "max_pooling2d_21", "trainable": true, "dtype": "float32", "pool_size": [2, 2], "padding": "valid", "strides": [2, 2], "data_format": "channels_last"}, "name": "max_pooling2d_21", "inbound_nodes": [[["activation_3682", 0, 0, {}]]]}, {"class_name": "Conv2D", "config": {"name": "conv2d_3393", "trainable": true, "dtype": "float32", "filters": 21, "kernel_size": [3, 3], "strides": [1, 1], "padding": "same", "data_format": "channels_last", "dilation_rate": [1, 1], "groups": 1, "activation": "linear", "use_bias": true, "kernel_initializer": {"class_name": "GlorotUniform", "config": {"seed": null}}, "bias_initializer": {"class_name": "Zeros", "config": {}}, "kernel_regularizer": null, "bias_regularizer": null, "activity_regularizer": null, "kernel_constraint": null, "bias_constraint": null}, "name": "conv2d_3393", "inbound_nodes": [[["max_pooling2d_21", 0, 0, {}]]]}, {"class_name": "Conv2D", "config": {"name": "conv2d_3394", "trainable": true, "dtype": "float32", "filters": 21, "kernel_size": [6, 6], "strides": [1, 1], "padding": "same", "data_format": "channels_last", "dilation_rate": [1, 1], "groups": 1, "activation": "linear", "use_bias": true, "kernel_initializer": {"class_name": "GlorotUniform", "config": {"seed": null}}, "bias_initializer": {"class_name": "Zeros", "config": {}}, "kernel_regularizer": null, "bias_regularizer": null, "activity_regularizer": null, "kernel_constraint": null, "bias_constraint": null}, "name": "conv2d_3394", "inbound_nodes": [[["max_pooling2d_21", 0, 0, {}]]]}, {"class_name": "Conv2D", "config": {"name": "conv2d_3395", "trainable": true, "dtype": "float32", "filters": 21, "kernel_size": [9, 9], "strides": [1, 1], "padding": "same", "data_format": "channels_last", "dilation_rate": [1, 1], "groups": 1, "activation": "linear", "use_bias": true, "kernel_initializer": {"class_name": "GlorotUniform", "config": {"seed": null}}, "bias_initializer": {"class_name": "Zeros", "config": {}}, "kernel_regularizer": null, "bias_regularizer": null, "activity_regularizer": null, "kernel_constraint": null, "bias_constraint": null}, "name": "conv2d_3395", "inbound_nodes": [[["max_pooling2d_21", 0, 0, {}]]]}, {"class_name": "BatchNormalization", "config": {"name": "batch_normalization_3683", "trainable": true, "dtype": "float32", "axis": [3], "momentum": 0.99, "epsilon": 0.001, "center": true, "scale": true, "beta_initializer": {"class_name": "Zeros", "config": {}}, "gamma_initializer": {"class_name": "Ones", "config": {}}, "moving_mean_initializer": {"class_name": "Zeros", "config": {}}, "moving_variance_initializer": {"class_name": "Ones", "config": {}}, "beta_regularizer": null, "gamma_regularizer": null, "beta_constraint": null, "gamma_constraint": null}, "name": "batch_normalization_3683", "inbound_nodes": [[["conv2d_3393", 0, 0, {}]]]}, {"class_name": "BatchNormalization", "config": {"name": "batch_normalization_3684", "trainable": true, "dtype": "float32", "axis": [3], "momentum": 0.99, "epsilon": 0.001, "center": true, "scale": true, "beta_initializer": {"class_name": "Zeros", "config": {}}, "gamma_initializer": {"class_name": "Ones", "config": {}}, "moving_mean_initializer": {"class_name": "Zeros", "config": {}}, "moving_variance_initializer": {"class_name": "Ones", "config": {}}, "beta_regularizer": null, "gamma_regularizer": null, "beta_constraint": null, "gamma_constraint": null}, "name": "batch_normalization_3684", "inbound_nodes": [[["conv2d_3394", 0, 0, {}]]]}, {"class_name": "BatchNormalization", "config": {"name": "batch_normalization_3685", "trainable": true, "dtype": "float32", "axis": [3], "momentum": 0.99, "epsilon": 0.001, "center": true, "scale": true, "beta_initializer": {"class_name": "Zeros", "config": {}}, "gamma_initializer": {"class_name": "Ones", "config": {}}, "moving_mean_initializer": {"class_name": "Zeros", "config": {}}, "moving_variance_initializer": {"class_name": "Ones", "config": {}}, "beta_regularizer": null, "gamma_regularizer": null, "beta_constraint": null, "gamma_constraint": null}, "name": "batch_normalization_3685", "inbound_nodes": [[["conv2d_3395", 0, 0, {}]]]}, {"class_name": "Activation", "config": {"name": "activation_3683", "trainable": true, "dtype": "float32", "activation": "relu"}, "name": "activation_3683", "inbound_nodes": [[["batch_normalization_3683", 0, 0, {}]]]}, {"class_name": "Activation", "config": {"name": "activation_3684", "trainable": true, "dtype": "float32", "activation": "relu"}, "name": "activation_3684", "inbound_nodes": [[["batch_normalization_3684", 0, 0, {}]]]}, {"class_name": "Activation", "config": {"name": "activation_3685", "trainable": true, "dtype": "float32", "activation": "relu"}, "name": "activation_3685", "inbound_nodes": [[["batch_normalization_3685", 0, 0, {}]]]}, {"class_name": "Add", "config": {"name": "add_928", "trainable": true, "dtype": "float32"}, "name": "add_928", "inbound_nodes": [[["activation_3683", 0, 0, {}], ["activation_3684", 0, 0, {}], ["activation_3685", 0, 0, {}]]]}, {"class_name": "Concatenate", "config": {"name": "concatenate_1078", "trainable": true, "dtype": "float32", "axis": -1}, "name": "concatenate_1078", "inbound_nodes": [[["max_pooling2d_21", 0, 0, {}], ["add_928", 0, 0, {}]]]}, {"class_name": "Conv2D", "config": {"name": "conv2d_3396", "trainable": true, "dtype": "float32", "filters": 21, "kernel_size": [3, 3], "strides": [1, 1], "padding": "same", "data_format": "channels_last", "dilation_rate": [1, 1], "groups": 1, "activation": "linear", "use_bias": true, "kernel_initializer": {"class_name": "GlorotUniform", "config": {"seed": null}}, "bias_initializer": {"class_name": "Zeros", "config": {}}, "kernel_regularizer": null, "bias_regularizer": null, "activity_regularizer": null, "kernel_constraint": null, "bias_constraint": null}, "name": "conv2d_3396", "inbound_nodes": [[["concatenate_1078", 0, 0, {}]]]}, {"class_name": "Conv2D", "config": {"name": "conv2d_3397", "trainable": true, "dtype": "float32", "filters": 21, "kernel_size": [6, 6], "strides": [1, 1], "padding": "same", "data_format": "channels_last", "dilation_rate": [1, 1], "groups": 1, "activation": "linear", "use_bias": true, "kernel_initializer": {"class_name": "GlorotUniform", "config": {"seed": null}}, "bias_initializer": {"class_name": "Zeros", "config": {}}, "kernel_regularizer": null, "bias_regularizer": null, "activity_regularizer": null, "kernel_constraint": null, "bias_constraint": null}, "name": "conv2d_3397", "inbound_nodes": [[["concatenate_1078", 0, 0, {}]]]}, {"class_name": "Conv2D", "config": {"name": "conv2d_3398", "trainable": true, "dtype": "float32", "filters": 21, "kernel_size": [9, 9], "strides": [1, 1], "padding": "same", "data_format": "channels_last", "dilation_rate": [1, 1], "groups": 1, "activation": "linear", "use_bias": true, "kernel_initializer": {"class_name": "GlorotUniform", "config": {"seed": null}}, "bias_initializer": {"class_name": "Zeros", "config": {}}, "kernel_regularizer": null, "bias_regularizer": null, "activity_regularizer": null, "kernel_constraint": null, "bias_constraint": null}, "name": "conv2d_3398", "inbound_nodes": [[["concatenate_1078", 0, 0, {}]]]}, {"class_name": "BatchNormalization", "config": {"name": "batch_normalization_3686", "trainable": true, "dtype": "float32", "axis": [3], "momentum": 0.99, "epsilon": 0.001, "center": true, "scale": true, "beta_initializer": {"class_name": "Zeros", "config": {}}, "gamma_initializer": {"class_name": "Ones", "config": {}}, "moving_mean_initializer": {"class_name": "Zeros", "config": {}}, "moving_variance_initializer": {"class_name": "Ones", "config": {}}, "beta_regularizer": null, "gamma_regularizer": null, "beta_constraint": null, "gamma_constraint": null}, "name": "batch_normalization_3686", "inbound_nodes": [[["conv2d_3396", 0, 0, {}]]]}, {"class_name": "BatchNormalization", "config": {"name": "batch_normalization_3687", "trainable": true, "dtype": "float32", "axis": [3], "momentum": 0.99, "epsilon": 0.001, "center": true, "scale": true, "beta_initializer": {"class_name": "Zeros", "config": {}}, "gamma_initializer": {"class_name": "Ones", "config": {}}, "moving_mean_initializer": {"class_name": "Zeros", "config": {}}, "moving_variance_initializer": {"class_name": "Ones", "config": {}}, "beta_regularizer": null, "gamma_regularizer": null, "beta_constraint": null, "gamma_constraint": null}, "name": "batch_normalization_3687", "inbound_nodes": [[["conv2d_3397", 0, 0, {}]]]}, {"class_name": "BatchNormalization", "config": {"name": "batch_normalization_3688", "trainable": true, "dtype": "float32", "axis": [3], "momentum": 0.99, "epsilon": 0.001, "center": true, "scale": true, "beta_initializer": {"class_name": "Zeros", "config": {}}, "gamma_initializer": {"class_name": "Ones", "config": {}}, "moving_mean_initializer": {"class_name": "Zeros", "config": {}}, "moving_variance_initializer": {"class_name": "Ones", "config": {}}, "beta_regularizer": null, "gamma_regularizer": null, "beta_constraint": null, "gamma_constraint": null}, "name": "batch_normalization_3688", "inbound_nodes": [[["conv2d_3398", 0, 0, {}]]]}, {"class_name": "Activation", "config": {"name": "activation_3686", "trainable": true, "dtype": "float32", "activation": "relu"}, "name": "activation_3686", "inbound_nodes": [[["batch_normalization_3686", 0, 0, {}]]]}, {"class_name": "Activation", "config": {"name": "activation_3687", "trainable": true, "dtype": "float32", "activation": "relu"}, "name": "activation_3687", "inbound_nodes": [[["batch_normalization_3687", 0, 0, {}]]]}, {"class_name": "Activation", "config": {"name": "activation_3688", "trainable": true, "dtype": "float32", "activation": "relu"}, "name": "activation_3688", "inbound_nodes": [[["batch_normalization_3688", 0, 0, {}]]]}, {"class_name": "Add", "config": {"name": "add_929", "trainable": true, "dtype": "float32"}, "name": "add_929", "inbound_nodes": [[["activation_3686", 0, 0, {}], ["activation_3687", 0, 0, {}], ["activation_3688", 0, 0, {}]]]}, {"class_name": "Concatenate", "config": {"name": "concatenate_1079", "trainable": true, "dtype": "float32", "axis": -1}, "name": "concatenate_1079", "inbound_nodes": [[["max_pooling2d_21", 0, 0, {}], ["concatenate_1078", 0, 0, {}], ["add_929", 0, 0, {}]]]}, {"class_name": "Conv2D", "config": {"name": "conv2d_3399", "trainable": true, "dtype": "float32", "filters": 64, "kernel_size": [1, 1], "strides": [1, 1], "padding": "same", "data_format": "channels_last", "dilation_rate": [1, 1], "groups": 1, "activation": "linear", "use_bias": true, "kernel_initializer": {"class_name": "GlorotUniform", "config": {"seed": null}}, "bias_initializer": {"class_name": "Zeros", "config": {}}, "kernel_regularizer": null, "bias_regularizer": null, "activity_regularizer": null, "kernel_constraint": null, "bias_constraint": null}, "name": "conv2d_3399", "inbound_nodes": [[["concatenate_1079", 0, 0, {}]]]}, {"class_name": "BatchNormalization", "config": {"name": "batch_normalization_3689", "trainable": true, "dtype": "float32", "axis": [3], "momentum": 0.99, "epsilon": 0.001, "center": true, "scale": true, "beta_initializer": {"class_name": "Zeros", "config": {}}, "gamma_initializer": {"class_name": "Ones", "config": {}}, "moving_mean_initializer": {"class_name": "Zeros", "config": {}}, "moving_variance_initializer": {"class_name": "Ones", "config": {}}, "beta_regularizer": null, "gamma_regularizer": null, "beta_constraint": null, "gamma_constraint": null}, "name": "batch_normalization_3689", "inbound_nodes": [[["conv2d_3399", 0, 0, {}]]]}, {"class_name": "Activation", "config": {"name": "activation_3689", "trainable": true, "dtype": "float32", "activation": "relu"}, "name": "activation_3689", "inbound_nodes": [[["batch_normalization_3689", 0, 0, {}]]]}, {"class_name": "MaxPooling2D", "config": {"name": "max_pooling2d_22", "trainable": true, "dtype": "float32", "pool_size": [2, 2], "padding": "valid", "strides": [2, 2], "data_format": "channels_last"}, "name": "max_pooling2d_22", "inbound_nodes": [[["activation_3689", 0, 0, {}]]]}, {"class_name": "Conv2D", "config": {"name": "conv2d_3400", "trainable": true, "dtype": "float32", "filters": 21, "kernel_size": [3, 3], "strides": [1, 1], "padding": "same", "data_format": "channels_last", "dilation_rate": [1, 1], "groups": 1, "activation": "linear", "use_bias": true, "kernel_initializer": {"class_name": "GlorotUniform", "config": {"seed": null}}, "bias_initializer": {"class_name": "Zeros", "config": {}}, "kernel_regularizer": null, "bias_regularizer": null, "activity_regularizer": null, "kernel_constraint": null, "bias_constraint": null}, "name": "conv2d_3400", "inbound_nodes": [[["max_pooling2d_22", 0, 0, {}]]]}, {"class_name": "Conv2D", "config": {"name": "conv2d_3401", "trainable": true, "dtype": "float32", "filters": 21, "kernel_size": [6, 6], "strides": [1, 1], "padding": "same", "data_format": "channels_last", "dilation_rate": [1, 1], "groups": 1, "activation": "linear", "use_bias": true, "kernel_initializer": {"class_name": "GlorotUniform", "config": {"seed": null}}, "bias_initializer": {"class_name": "Zeros", "config": {}}, "kernel_regularizer": null, "bias_regularizer": null, "activity_regularizer": null, "kernel_constraint": null, "bias_constraint": null}, "name": "conv2d_3401", "inbound_nodes": [[["max_pooling2d_22", 0, 0, {}]]]}, {"class_name": "Conv2D", "config": {"name": "conv2d_3402", "trainable": true, "dtype": "float32", "filters": 21, "kernel_size": [9, 9], "strides": [1, 1], "padding": "same", "data_format": "channels_last", "dilation_rate": [1, 1], "groups": 1, "activation": "linear", "use_bias": true, "kernel_initializer": {"class_name": "GlorotUniform", "config": {"seed": null}}, "bias_initializer": {"class_name": "Zeros", "config": {}}, "kernel_regularizer": null, "bias_regularizer": null, "activity_regularizer": null, "kernel_constraint": null, "bias_constraint": null}, "name": "conv2d_3402", "inbound_nodes": [[["max_pooling2d_22", 0, 0, {}]]]}, {"class_name": "BatchNormalization", "config": {"name": "batch_normalization_3690", "trainable": true, "dtype": "float32", "axis": [3], "momentum": 0.99, "epsilon": 0.001, "center": true, "scale": true, "beta_initializer": {"class_name": "Zeros", "config": {}}, "gamma_initializer": {"class_name": "Ones", "config": {}}, "moving_mean_initializer": {"class_name": "Zeros", "config": {}}, "moving_variance_initializer": {"class_name": "Ones", "config": {}}, "beta_regularizer": null, "gamma_regularizer": null, "beta_constraint": null, "gamma_constraint": null}, "name": "batch_normalization_3690", "inbound_nodes": [[["conv2d_3400", 0, 0, {}]]]}, {"class_name": "BatchNormalization", "config": {"name": "batch_normalization_3691", "trainable": true, "dtype": "float32", "axis": [3], "momentum": 0.99, "epsilon": 0.001, "center": true, "scale": true, "beta_initializer": {"class_name": "Zeros", "config": {}}, "gamma_initializer": {"class_name": "Ones", "config": {}}, "moving_mean_initializer": {"class_name": "Zeros", "config": {}}, "moving_variance_initializer": {"class_name": "Ones", "config": {}}, "beta_regularizer": null, "gamma_regularizer": null, "beta_constraint": null, "gamma_constraint": null}, "name": "batch_normalization_3691", "inbound_nodes": [[["conv2d_3401", 0, 0, {}]]]}, {"class_name": "BatchNormalization", "config": {"name": "batch_normalization_3692", "trainable": true, "dtype": "float32", "axis": [3], "momentum": 0.99, "epsilon": 0.001, "center": true, "scale": true, "beta_initializer": {"class_name": "Zeros", "config": {}}, "gamma_initializer": {"class_name": "Ones", "config": {}}, "moving_mean_initializer": {"class_name": "Zeros", "config": {}}, "moving_variance_initializer": {"class_name": "Ones", "config": {}}, "beta_regularizer": null, "gamma_regularizer": null, "beta_constraint": null, "gamma_constraint": null}, "name": "batch_normalization_3692", "inbound_nodes": [[["conv2d_3402", 0, 0, {}]]]}, {"class_name": "Activation", "config": {"name": "activation_3690", "trainable": true, "dtype": "float32", "activation": "relu"}, "name": "activation_3690", "inbound_nodes": [[["batch_normalization_3690", 0, 0, {}]]]}, {"class_name": "Activation", "config": {"name": "activation_3691", "trainable": true, "dtype": "float32", "activation": "relu"}, "name": "activation_3691", "inbound_nodes": [[["batch_normalization_3691", 0, 0, {}]]]}, {"class_name": "Activation", "config": {"name": "activation_3692", "trainable": true, "dtype": "float32", "activation": "relu"}, "name": "activation_3692", "inbound_nodes": [[["batch_normalization_3692", 0, 0, {}]]]}, {"class_name": "Add", "config": {"name": "add_930", "trainable": true, "dtype": "float32"}, "name": "add_930", "inbound_nodes": [[["activation_3690", 0, 0, {}], ["activation_3691", 0, 0, {}], ["activation_3692", 0, 0, {}]]]}, {"class_name": "Concatenate", "config": {"name": "concatenate_1080", "trainable": true, "dtype": "float32", "axis": -1}, "name": "concatenate_1080", "inbound_nodes": [[["max_pooling2d_22", 0, 0, {}], ["add_930", 0, 0, {}]]]}, {"class_name": "Conv2D", "config": {"name": "conv2d_3403", "trainable": true, "dtype": "float32", "filters": 21, "kernel_size": [3, 3], "strides": [1, 1], "padding": "same", "data_format": "channels_last", "dilation_rate": [1, 1], "groups": 1, "activation": "linear", "use_bias": true, "kernel_initializer": {"class_name": "GlorotUniform", "config": {"seed": null}}, "bias_initializer": {"class_name": "Zeros", "config": {}}, "kernel_regularizer": null, "bias_regularizer": null, "activity_regularizer": null, "kernel_constraint": null, "bias_constraint": null}, "name": "conv2d_3403", "inbound_nodes": [[["concatenate_1080", 0, 0, {}]]]}, {"class_name": "Conv2D", "config": {"name": "conv2d_3404", "trainable": true, "dtype": "float32", "filters": 21, "kernel_size": [6, 6], "strides": [1, 1], "padding": "same", "data_format": "channels_last", "dilation_rate": [1, 1], "groups": 1, "activation": "linear", "use_bias": true, "kernel_initializer": {"class_name": "GlorotUniform", "config": {"seed": null}}, "bias_initializer": {"class_name": "Zeros", "config": {}}, "kernel_regularizer": null, "bias_regularizer": null, "activity_regularizer": null, "kernel_constraint": null, "bias_constraint": null}, "name": "conv2d_3404", "inbound_nodes": [[["concatenate_1080", 0, 0, {}]]]}, {"class_name": "Conv2D", "config": {"name": "conv2d_3405", "trainable": true, "dtype": "float32", "filters": 21, "kernel_size": [9, 9], "strides": [1, 1], "padding": "same", "data_format": "channels_last", "dilation_rate": [1, 1], "groups": 1, "activation": "linear", "use_bias": true, "kernel_initializer": {"class_name": "GlorotUniform", "config": {"seed": null}}, "bias_initializer": {"class_name": "Zeros", "config": {}}, "kernel_regularizer": null, "bias_regularizer": null, "activity_regularizer": null, "kernel_constraint": null, "bias_constraint": null}, "name": "conv2d_3405", "inbound_nodes": [[["concatenate_1080", 0, 0, {}]]]}, {"class_name": "BatchNormalization", "config": {"name": "batch_normalization_3693", "trainable": true, "dtype": "float32", "axis": [3], "momentum": 0.99, "epsilon": 0.001, "center": true, "scale": true, "beta_initializer": {"class_name": "Zeros", "config": {}}, "gamma_initializer": {"class_name": "Ones", "config": {}}, "moving_mean_initializer": {"class_name": "Zeros", "config": {}}, "moving_variance_initializer": {"class_name": "Ones", "config": {}}, "beta_regularizer": null, "gamma_regularizer": null, "beta_constraint": null, "gamma_constraint": null}, "name": "batch_normalization_3693", "inbound_nodes": [[["conv2d_3403", 0, 0, {}]]]}, {"class_name": "BatchNormalization", "config": {"name": "batch_normalization_3694", "trainable": true, "dtype": "float32", "axis": [3], "momentum": 0.99, "epsilon": 0.001, "center": true, "scale": true, "beta_initializer": {"class_name": "Zeros", "config": {}}, "gamma_initializer": {"class_name": "Ones", "config": {}}, "moving_mean_initializer": {"class_name": "Zeros", "config": {}}, "moving_variance_initializer": {"class_name": "Ones", "config": {}}, "beta_regularizer": null, "gamma_regularizer": null, "beta_constraint": null, "gamma_constraint": null}, "name": "batch_normalization_3694", "inbound_nodes": [[["conv2d_3404", 0, 0, {}]]]}, {"class_name": "BatchNormalization", "config": {"name": "batch_normalization_3695", "trainable": true, "dtype": "float32", "axis": [3], "momentum": 0.99, "epsilon": 0.001, "center": true, "scale": true, "beta_initializer": {"class_name": "Zeros", "config": {}}, "gamma_initializer": {"class_name": "Ones", "config": {}}, "moving_mean_initializer": {"class_name": "Zeros", "config": {}}, "moving_variance_initializer": {"class_name": "Ones", "config": {}}, "beta_regularizer": null, "gamma_regularizer": null, "beta_constraint": null, "gamma_constraint": null}, "name": "batch_normalization_3695", "inbound_nodes": [[["conv2d_3405", 0, 0, {}]]]}, {"class_name": "Activation", "config": {"name": "activation_3693", "trainable": true, "dtype": "float32", "activation": "relu"}, "name": "activation_3693", "inbound_nodes": [[["batch_normalization_3693", 0, 0, {}]]]}, {"class_name": "Activation", "config": {"name": "activation_3694", "trainable": true, "dtype": "float32", "activation": "relu"}, "name": "activation_3694", "inbound_nodes": [[["batch_normalization_3694", 0, 0, {}]]]}, {"class_name": "Activation", "config": {"name": "activation_3695", "trainable": true, "dtype": "float32", "activation": "relu"}, "name": "activation_3695", "inbound_nodes": [[["batch_normalization_3695", 0, 0, {}]]]}, {"class_name": "Add", "config": {"name": "add_931", "trainable": true, "dtype": "float32"}, "name": "add_931", "inbound_nodes": [[["activation_3693", 0, 0, {}], ["activation_3694", 0, 0, {}], ["activation_3695", 0, 0, {}]]]}, {"class_name": "Concatenate", "config": {"name": "concatenate_1081", "trainable": true, "dtype": "float32", "axis": -1}, "name": "concatenate_1081", "inbound_nodes": [[["max_pooling2d_22", 0, 0, {}], ["concatenate_1080", 0, 0, {}], ["add_931", 0, 0, {}]]]}, {"class_name": "Conv2D", "config": {"name": "conv2d_3406", "trainable": true, "dtype": "float32", "filters": 64, "kernel_size": [1, 1], "strides": [1, 1], "padding": "same", "data_format": "channels_last", "dilation_rate": [1, 1], "groups": 1, "activation": "linear", "use_bias": true, "kernel_initializer": {"class_name": "GlorotUniform", "config": {"seed": null}}, "bias_initializer": {"class_name": "Zeros", "config": {}}, "kernel_regularizer": null, "bias_regularizer": null, "activity_regularizer": null, "kernel_constraint": null, "bias_constraint": null}, "name": "conv2d_3406", "inbound_nodes": [[["concatenate_1081", 0, 0, {}]]]}, {"class_name": "BatchNormalization", "config": {"name": "batch_normalization_3696", "trainable": true, "dtype": "float32", "axis": [3], "momentum": 0.99, "epsilon": 0.001, "center": true, "scale": true, "beta_initializer": {"class_name": "Zeros", "config": {}}, "gamma_initializer": {"class_name": "Ones", "config": {}}, "moving_mean_initializer": {"class_name": "Zeros", "config": {}}, "moving_variance_initializer": {"class_name": "Ones", "config": {}}, "beta_regularizer": null, "gamma_regularizer": null, "beta_constraint": null, "gamma_constraint": null}, "name": "batch_normalization_3696", "inbound_nodes": [[["conv2d_3406", 0, 0, {}]]]}, {"class_name": "Activation", "config": {"name": "activation_3696", "trainable": true, "dtype": "float32", "activation": "relu"}, "name": "activation_3696", "inbound_nodes": [[["batch_normalization_3696", 0, 0, {}]]]}, {"class_name": "MaxPooling2D", "config": {"name": "max_pooling2d_23", "trainable": true, "dtype": "float32", "pool_size": [2, 2], "padding": "valid", "strides": [2, 2], "data_format": "channels_last"}, "name": "max_pooling2d_23", "inbound_nodes": [[["activation_3696", 0, 0, {}]]]}, {"class_name": "Conv2D", "config": {"name": "conv2d_3407", "trainable": true, "dtype": "float32", "filters": 21, "kernel_size": [3, 3], "strides": [1, 1], "padding": "same", "data_format": "channels_last", "dilation_rate": [1, 1], "groups": 1, "activation": "linear", "use_bias": true, "kernel_initializer": {"class_name": "GlorotUniform", "config": {"seed": null}}, "bias_initializer": {"class_name": "Zeros", "config": {}}, "kernel_regularizer": null, "bias_regularizer": null, "activity_regularizer": null, "kernel_constraint": null, "bias_constraint": null}, "name": "conv2d_3407", "inbound_nodes": [[["max_pooling2d_23", 0, 0, {}]]]}, {"class_name": "Conv2D", "config": {"name": "conv2d_3408", "trainable": true, "dtype": "float32", "filters": 21, "kernel_size": [6, 6], "strides": [1, 1], "padding": "same", "data_format": "channels_last", "dilation_rate": [1, 1], "groups": 1, "activation": "linear", "use_bias": true, "kernel_initializer": {"class_name": "GlorotUniform", "config": {"seed": null}}, "bias_initializer": {"class_name": "Zeros", "config": {}}, "kernel_regularizer": null, "bias_regularizer": null, "activity_regularizer": null, "kernel_constraint": null, "bias_constraint": null}, "name": "conv2d_3408", "inbound_nodes": [[["max_pooling2d_23", 0, 0, {}]]]}, {"class_name": "Conv2D", "config": {"name": "conv2d_3409", "trainable": true, "dtype": "float32", "filters": 21, "kernel_size": [9, 9], "strides": [1, 1], "padding": "same", "data_format": "channels_last", "dilation_rate": [1, 1], "groups": 1, "activation": "linear", "use_bias": true, "kernel_initializer": {"class_name": "GlorotUniform", "config": {"seed": null}}, "bias_initializer": {"class_name": "Zeros", "config": {}}, "kernel_regularizer": null, "bias_regularizer": null, "activity_regularizer": null, "kernel_constraint": null, "bias_constraint": null}, "name": "conv2d_3409", "inbound_nodes": [[["max_pooling2d_23", 0, 0, {}]]]}, {"class_name": "BatchNormalization", "config": {"name": "batch_normalization_3697", "trainable": true, "dtype": "float32", "axis": [3], "momentum": 0.99, "epsilon": 0.001, "center": true, "scale": true, "beta_initializer": {"class_name": "Zeros", "config": {}}, "gamma_initializer": {"class_name": "Ones", "config": {}}, "moving_mean_initializer": {"class_name": "Zeros", "config": {}}, "moving_variance_initializer": {"class_name": "Ones", "config": {}}, "beta_regularizer": null, "gamma_regularizer": null, "beta_constraint": null, "gamma_constraint": null}, "name": "batch_normalization_3697", "inbound_nodes": [[["conv2d_3407", 0, 0, {}]]]}, {"class_name": "BatchNormalization", "config": {"name": "batch_normalization_3698", "trainable": true, "dtype": "float32", "axis": [3], "momentum": 0.99, "epsilon": 0.001, "center": true, "scale": true, "beta_initializer": {"class_name": "Zeros", "config": {}}, "gamma_initializer": {"class_name": "Ones", "config": {}}, "moving_mean_initializer": {"class_name": "Zeros", "config": {}}, "moving_variance_initializer": {"class_name": "Ones", "config": {}}, "beta_regularizer": null, "gamma_regularizer": null, "beta_constraint": null, "gamma_constraint": null}, "name": "batch_normalization_3698", "inbound_nodes": [[["conv2d_3408", 0, 0, {}]]]}, {"class_name": "BatchNormalization", "config": {"name": "batch_normalization_3699", "trainable": true, "dtype": "float32", "axis": [3], "momentum": 0.99, "epsilon": 0.001, "center": true, "scale": true, "beta_initializer": {"class_name": "Zeros", "config": {}}, "gamma_initializer": {"class_name": "Ones", "config": {}}, "moving_mean_initializer": {"class_name": "Zeros", "config": {}}, "moving_variance_initializer": {"class_name": "Ones", "config": {}}, "beta_regularizer": null, "gamma_regularizer": null, "beta_constraint": null, "gamma_constraint": null}, "name": "batch_normalization_3699", "inbound_nodes": [[["conv2d_3409", 0, 0, {}]]]}, {"class_name": "Activation", "config": {"name": "activation_3697", "trainable": true, "dtype": "float32", "activation": "relu"}, "name": "activation_3697", "inbound_nodes": [[["batch_normalization_3697", 0, 0, {}]]]}, {"class_name": "Activation", "config": {"name": "activation_3698", "trainable": true, "dtype": "float32", "activation": "relu"}, "name": "activation_3698", "inbound_nodes": [[["batch_normalization_3698", 0, 0, {}]]]}, {"class_name": "Activation", "config": {"name": "activation_3699", "trainable": true, "dtype": "float32", "activation": "relu"}, "name": "activation_3699", "inbound_nodes": [[["batch_normalization_3699", 0, 0, {}]]]}, {"class_name": "Add", "config": {"name": "add_932", "trainable": true, "dtype": "float32"}, "name": "add_932", "inbound_nodes": [[["activation_3697", 0, 0, {}], ["activation_3698", 0, 0, {}], ["activation_3699", 0, 0, {}]]]}, {"class_name": "Concatenate", "config": {"name": "concatenate_1082", "trainable": true, "dtype": "float32", "axis": -1}, "name": "concatenate_1082", "inbound_nodes": [[["max_pooling2d_23", 0, 0, {}], ["add_932", 0, 0, {}]]]}, {"class_name": "Conv2D", "config": {"name": "conv2d_3410", "trainable": true, "dtype": "float32", "filters": 21, "kernel_size": [3, 3], "strides": [1, 1], "padding": "same", "data_format": "channels_last", "dilation_rate": [1, 1], "groups": 1, "activation": "linear", "use_bias": true, "kernel_initializer": {"class_name": "GlorotUniform", "config": {"seed": null}}, "bias_initializer": {"class_name": "Zeros", "config": {}}, "kernel_regularizer": null, "bias_regularizer": null, "activity_regularizer": null, "kernel_constraint": null, "bias_constraint": null}, "name": "conv2d_3410", "inbound_nodes": [[["concatenate_1082", 0, 0, {}]]]}, {"class_name": "Conv2D", "config": {"name": "conv2d_3411", "trainable": true, "dtype": "float32", "filters": 21, "kernel_size": [6, 6], "strides": [1, 1], "padding": "same", "data_format": "channels_last", "dilation_rate": [1, 1], "groups": 1, "activation": "linear", "use_bias": true, "kernel_initializer": {"class_name": "GlorotUniform", "config": {"seed": null}}, "bias_initializer": {"class_name": "Zeros", "config": {}}, "kernel_regularizer": null, "bias_regularizer": null, "activity_regularizer": null, "kernel_constraint": null, "bias_constraint": null}, "name": "conv2d_3411", "inbound_nodes": [[["concatenate_1082", 0, 0, {}]]]}, {"class_name": "Conv2D", "config": {"name": "conv2d_3412", "trainable": true, "dtype": "float32", "filters": 21, "kernel_size": [9, 9], "strides": [1, 1], "padding": "same", "data_format": "channels_last", "dilation_rate": [1, 1], "groups": 1, "activation": "linear", "use_bias": true, "kernel_initializer": {"class_name": "GlorotUniform", "config": {"seed": null}}, "bias_initializer": {"class_name": "Zeros", "config": {}}, "kernel_regularizer": null, "bias_regularizer": null, "activity_regularizer": null, "kernel_constraint": null, "bias_constraint": null}, "name": "conv2d_3412", "inbound_nodes": [[["concatenate_1082", 0, 0, {}]]]}, {"class_name": "BatchNormalization", "config": {"name": "batch_normalization_3700", "trainable": true, "dtype": "float32", "axis": [3], "momentum": 0.99, "epsilon": 0.001, "center": true, "scale": true, "beta_initializer": {"class_name": "Zeros", "config": {}}, "gamma_initializer": {"class_name": "Ones", "config": {}}, "moving_mean_initializer": {"class_name": "Zeros", "config": {}}, "moving_variance_initializer": {"class_name": "Ones", "config": {}}, "beta_regularizer": null, "gamma_regularizer": null, "beta_constraint": null, "gamma_constraint": null}, "name": "batch_normalization_3700", "inbound_nodes": [[["conv2d_3410", 0, 0, {}]]]}, {"class_name": "BatchNormalization", "config": {"name": "batch_normalization_3701", "trainable": true, "dtype": "float32", "axis": [3], "momentum": 0.99, "epsilon": 0.001, "center": true, "scale": true, "beta_initializer": {"class_name": "Zeros", "config": {}}, "gamma_initializer": {"class_name": "Ones", "config": {}}, "moving_mean_initializer": {"class_name": "Zeros", "config": {}}, "moving_variance_initializer": {"class_name": "Ones", "config": {}}, "beta_regularizer": null, "gamma_regularizer": null, "beta_constraint": null, "gamma_constraint": null}, "name": "batch_normalization_3701", "inbound_nodes": [[["conv2d_3411", 0, 0, {}]]]}, {"class_name": "BatchNormalization", "config": {"name": "batch_normalization_3702", "trainable": true, "dtype": "float32", "axis": [3], "momentum": 0.99, "epsilon": 0.001, "center": true, "scale": true, "beta_initializer": {"class_name": "Zeros", "config": {}}, "gamma_initializer": {"class_name": "Ones", "config": {}}, "moving_mean_initializer": {"class_name": "Zeros", "config": {}}, "moving_variance_initializer": {"class_name": "Ones", "config": {}}, "beta_regularizer": null, "gamma_regularizer": null, "beta_constraint": null, "gamma_constraint": null}, "name": "batch_normalization_3702", "inbound_nodes": [[["conv2d_3412", 0, 0, {}]]]}, {"class_name": "Activation", "config": {"name": "activation_3700", "trainable": true, "dtype": "float32", "activation": "relu"}, "name": "activation_3700", "inbound_nodes": [[["batch_normalization_3700", 0, 0, {}]]]}, {"class_name": "Activation", "config": {"name": "activation_3701", "trainable": true, "dtype": "float32", "activation": "relu"}, "name": "activation_3701", "inbound_nodes": [[["batch_normalization_3701", 0, 0, {}]]]}, {"class_name": "Activation", "config": {"name": "activation_3702", "trainable": true, "dtype": "float32", "activation": "relu"}, "name": "activation_3702", "inbound_nodes": [[["batch_normalization_3702", 0, 0, {}]]]}, {"class_name": "Add", "config": {"name": "add_933", "trainable": true, "dtype": "float32"}, "name": "add_933", "inbound_nodes": [[["activation_3700", 0, 0, {}], ["activation_3701", 0, 0, {}], ["activation_3702", 0, 0, {}]]]}, {"class_name": "Concatenate", "config": {"name": "concatenate_1083", "trainable": true, "dtype": "float32", "axis": -1}, "name": "concatenate_1083", "inbound_nodes": [[["max_pooling2d_23", 0, 0, {}], ["concatenate_1082", 0, 0, {}], ["add_933", 0, 0, {}]]]}, {"class_name": "Conv2D", "config": {"name": "conv2d_3413", "trainable": true, "dtype": "float32", "filters": 64, "kernel_size": [1, 1], "strides": [1, 1], "padding": "same", "data_format": "channels_last", "dilation_rate": [1, 1], "groups": 1, "activation": "linear", "use_bias": true, "kernel_initializer": {"class_name": "GlorotUniform", "config": {"seed": null}}, "bias_initializer": {"class_name": "Zeros", "config": {}}, "kernel_regularizer": null, "bias_regularizer": null, "activity_regularizer": null, "kernel_constraint": null, "bias_constraint": null}, "name": "conv2d_3413", "inbound_nodes": [[["concatenate_1083", 0, 0, {}]]]}, {"class_name": "BatchNormalization", "config": {"name": "batch_normalization_3703", "trainable": true, "dtype": "float32", "axis": [3], "momentum": 0.99, "epsilon": 0.001, "center": true, "scale": true, "beta_initializer": {"class_name": "Zeros", "config": {}}, "gamma_initializer": {"class_name": "Ones", "config": {}}, "moving_mean_initializer": {"class_name": "Zeros", "config": {}}, "moving_variance_initializer": {"class_name": "Ones", "config": {}}, "beta_regularizer": null, "gamma_regularizer": null, "beta_constraint": null, "gamma_constraint": null}, "name": "batch_normalization_3703", "inbound_nodes": [[["conv2d_3413", 0, 0, {}]]]}, {"class_name": "Activation", "config": {"name": "activation_3703", "trainable": true, "dtype": "float32", "activation": "relu"}, "name": "activation_3703", "inbound_nodes": [[["batch_normalization_3703", 0, 0, {}]]]}, {"class_name": "TFOpLambda", "config": {"name": "tf.expand_dims_3", "trainable": true, "dtype": "float32", "function": "expand_dims"}, "name": "tf.expand_dims_3", "inbound_nodes": [["activation_3703", 0, 0, {"axis": 1}]]}, {"class_name": "ConvGRU2D", "config": {"name": "conv_gr_u2d_141", "trainable": true, "dtype": "float32", "filters": 64, "kernel_size": [3, 3], "padding": "same", "activation": "tanh", "recurrent_activation": "sigmoid"}, "name": "conv_gr_u2d_141", "inbound_nodes": [[["tf.expand_dims_3", 0, 0, {}]]]}, {"class_name": "ConvGRU2D", "config": {"name": "conv_gr_u2d_142", "trainable": true, "dtype": "float32", "filters": 64, "kernel_size": [3, 3], "padding": "same", "activation": "tanh", "recurrent_activation": "sigmoid"}, "name": "conv_gr_u2d_142", "inbound_nodes": [[["conv_gr_u2d_141", 0, 0, {}]]]}, {"class_name": "Lambda", "config": {"name": "lambda_141", "trainable": true, "dtype": "float32", "function": ["4wEAAAAAAAAAAAAAAAEAAAAHAAAAUwAAAHMiAAAAfABkAGQAhQJkAWQAZACFAmQAZACFAmQAZACF\nAmYFGQBTAKkCTun/////qQCpAdoBeHIDAAAAcgMAAAD6E2Q6L29wL3N0Z25ldG1haW4ucHnaCDxs\nYW1iZGE+dAAAAPMAAAAA\n", null, null], "function_type": "lambda", "module": "__main__", "output_shape": null, "output_shape_type": "raw", "output_shape_module": null, "arguments": {}}, "name": "lambda_141", "inbound_nodes": [[["conv_gr_u2d_141", 0, 0, {}]]]}, {"class_name": "Lambda", "config": {"name": "lambda_142", "trainable": true, "dtype": "float32", "function": ["4wEAAAAAAAAAAAAAAAEAAAAHAAAAUwAAAHMiAAAAfABkAGQAhQJkAWQAZACFAmQAZACFAmQAZACF\nAmYFGQBTAKkCTun/////qQCpAdoBeHIDAAAAcgMAAAD6E2Q6L29wL3N0Z25ldG1haW4ucHnaCDxs\nYW1iZGE+dAAAAPMAAAAA\n", null, null], "function_type": "lambda", "module": "__main__", "output_shape": null, "output_shape_type": "raw", "output_shape_module": null, "arguments": {}}, "name": "lambda_142", "inbound_nodes": [[["conv_gr_u2d_142", 0, 0, {}]]]}, {"class_name": "ConvGRU2D", "config": {"name": "conv_gr_u2d_143", "trainable": true, "dtype": "float32", "filters": 64, "kernel_size": [3, 3], "padding": "same", "activation": "tanh", "recurrent_activation": "sigmoid"}, "name": "conv_gr_u2d_143", "inbound_nodes": [[["conv_gr_u2d_142", 0, 0, {}]]]}, {"class_name": "Conv2DTranspose", "config": {"name": "conv2d_transpose_435", "trainable": true, "dtype": "float32", "filters": 64, "kernel_size": [3, 3], "strides": [2, 2], "padding": "valid", "data_format": "channels_last", "dilation_rate": [1, 1], "groups": 1, "activation": "linear", "use_bias": true, "kernel_initializer": {"class_name": "GlorotUniform", "config": {"seed": null}}, "bias_initializer": {"class_name": "Zeros", "config": {}}, "kernel_regularizer": null, "bias_regularizer": null, "activity_regularizer": null, "kernel_constraint": null, "bias_constraint": null, "output_padding": null}, "name": "conv2d_transpose_435", "inbound_nodes": [[["lambda_141", 0, 0, {}]]]}, {"class_name": "Conv2DTranspose", "config": {"name": "conv2d_transpose_438", "trainable": true, "dtype": "float32", "filters": 64, "kernel_size": [3, 3], "strides": [2, 2], "padding": "valid", "data_format": "channels_last", "dilation_rate": [1, 1], "groups": 1, "activation": "linear", "use_bias": true, "kernel_initializer": {"class_name": "GlorotUniform", "config": {"seed": null}}, "bias_initializer": {"class_name": "Zeros", "config": {}}, "kernel_regularizer": null, "bias_regularizer": null, "activity_regularizer": null, "kernel_constraint": null, "bias_constraint": null, "output_padding": null}, "name": "conv2d_transpose_438", "inbound_nodes": [[["lambda_142", 0, 0, {}]]]}, {"class_name": "Lambda", "config": {"name": "lambda_143", "trainable": true, "dtype": "float32", "function": ["4wEAAAAAAAAAAAAAAAEAAAAHAAAAUwAAAHMiAAAAfABkAGQAhQJkAWQAZACFAmQAZACFAmQAZACF\nAmYFGQBTAKkCTun/////qQCpAdoBeHIDAAAAcgMAAAD6E2Q6L29wL3N0Z25ldG1haW4ucHnaCDxs\nYW1iZGE+dAAAAPMAAAAA\n", null, null], "function_type": "lambda", "module": "__main__", "output_shape": null, "output_shape_type": "raw", "output_shape_module": null, "arguments": {}}, "name": "lambda_143", "inbound_nodes": [[["conv_gr_u2d_143", 0, 0, {}]]]}, {"class_name": "ConvGRU2D", "config": {"name": "conv_gr_u2d_144", "trainable": true, "dtype": "float32", "filters": 64, "kernel_size": [3, 3], "padding": "same", "activation": "tanh", "recurrent_activation": "sigmoid"}, "name": "conv_gr_u2d_144", "inbound_nodes": [[["conv_gr_u2d_143", 0, 0, {}]]]}, {"class_name": "BatchNormalization", "config": {"name": "batch_normalization_3704", "trainable": true, "dtype": "float32", "axis": [3], "momentum": 0.99, "epsilon": 0.001, "center": true, "scale": true, "beta_initializer": {"class_name": "Zeros", "config": {}}, "gamma_initializer": {"class_name": "Ones", "config": {}}, "moving_mean_initializer": {"class_name": "Zeros", "config": {}}, "moving_variance_initializer": {"class_name": "Ones", "config": {}}, "beta_regularizer": null, "gamma_regularizer": null, "beta_constraint": null, "gamma_constraint": null}, "name": "batch_normalization_3704", "inbound_nodes": [[["conv2d_transpose_435", 0, 0, {}]]]}, {"class_name": "BatchNormalization", "config": {"name": "batch_normalization_3728", "trainable": true, "dtype": "float32", "axis": [3], "momentum": 0.99, "epsilon": 0.001, "center": true, "scale": true, "beta_initializer": {"class_name": "Zeros", "config": {}}, "gamma_initializer": {"class_name": "Ones", "config": {}}, "moving_mean_initializer": {"class_name": "Zeros", "config": {}}, "moving_variance_initializer": {"class_name": "Ones", "config": {}}, "beta_regularizer": null, "gamma_regularizer": null, "beta_constraint": null, "gamma_constraint": null}, "name": "batch_normalization_3728", "inbound_nodes": [[["conv2d_transpose_438", 0, 0, {}]]]}, {"class_name": "Conv2DTranspose", "config": {"name": "conv2d_transpose_441", "trainable": true, "dtype": "float32", "filters": 64, "kernel_size": [3, 3], "strides": [2, 2], "padding": "valid", "data_format": "channels_last", "dilation_rate": [1, 1], "groups": 1, "activation": "linear", "use_bias": true, "kernel_initializer": {"class_name": "GlorotUniform", "config": {"seed": null}}, "bias_initializer": {"class_name": "Zeros", "config": {}}, "kernel_regularizer": null, "bias_regularizer": null, "activity_regularizer": null, "kernel_constraint": null, "bias_constraint": null, "output_padding": null}, "name": "conv2d_transpose_441", "inbound_nodes": [[["lambda_143", 0, 0, {}]]]}, {"class_name": "Lambda", "config": {"name": "lambda_144", "trainable": true, "dtype": "float32", "function": ["4wEAAAAAAAAAAAAAAAEAAAAHAAAAUwAAAHMiAAAAfABkAGQAhQJkAWQAZACFAmQAZACFAmQAZACF\nAmYFGQBTAKkCTun/////qQCpAdoBeHIDAAAAcgMAAAD6E2Q6L29wL3N0Z25ldG1haW4ucHnaCDxs\nYW1iZGE+dAAAAPMAAAAA\n", null, null], "function_type": "lambda", "module": "__main__", "output_shape": null, "output_shape_type": "raw", "output_shape_module": null, "arguments": {}}, "name": "lambda_144", "inbound_nodes": [[["conv_gr_u2d_144", 0, 0, {}]]]}, {"class_name": "ConvGRU2D", "config": {"name": "conv_gr_u2d_145", "trainable": true, "dtype": "float32", "filters": 64, "kernel_size": [3, 3], "padding": "same", "activation": "tanh", "recurrent_activation": "sigmoid"}, "name": "conv_gr_u2d_145", "inbound_nodes": [[["conv_gr_u2d_144", 0, 0, {}]]]}, {"class_name": "Activation", "config": {"name": "activation_3704", "trainable": true, "dtype": "float32", "activation": "relu"}, "name": "activation_3704", "inbound_nodes": [[["batch_normalization_3704", 0, 0, {}]]]}, {"class_name": "Activation", "config": {"name": "activation_3728", "trainable": true, "dtype": "float32", "activation": "relu"}, "name": "activation_3728", "inbound_nodes": [[["batch_normalization_3728", 0, 0, {}]]]}, {"class_name": "BatchNormalization", "config": {"name": "batch_normalization_3752", "trainable": true, "dtype": "float32", "axis": [3], "momentum": 0.99, "epsilon": 0.001, "center": true, "scale": true, "beta_initializer": {"class_name": "Zeros", "config": {}}, "gamma_initializer": {"class_name": "Ones", "config": {}}, "moving_mean_initializer": {"class_name": "Zeros", "config": {}}, "moving_variance_initializer": {"class_name": "Ones", "config": {}}, "beta_regularizer": null, "gamma_regularizer": null, "beta_constraint": null, "gamma_constraint": null}, "name": "batch_normalization_3752", "inbound_nodes": [[["conv2d_transpose_441", 0, 0, {}]]]}, {"class_name": "Conv2DTranspose", "config": {"name": "conv2d_transpose_444", "trainable": true, "dtype": "float32", "filters": 64, "kernel_size": [3, 3], "strides": [2, 2], "padding": "valid", "data_format": "channels_last", "dilation_rate": [1, 1], "groups": 1, "activation": "linear", "use_bias": true, "kernel_initializer": {"class_name": "GlorotUniform", "config": {"seed": null}}, "bias_initializer": {"class_name": "Zeros", "config": {}}, "kernel_regularizer": null, "bias_regularizer": null, "activity_regularizer": null, "kernel_constraint": null, "bias_constraint": null, "output_padding": null}, "name": "conv2d_transpose_444", "inbound_nodes": [[["lambda_144", 0, 0, {}]]]}, {"class_name": "Lambda", "config": {"name": "lambda_145", "trainable": true, "dtype": "float32", "function": ["4wEAAAAAAAAAAAAAAAEAAAAHAAAAUwAAAHMiAAAAfABkAGQAhQJkAWQAZACFAmQAZACFAmQAZACF\nAmYFGQBTAKkCTun/////qQCpAdoBeHIDAAAAcgMAAAD6E2Q6L29wL3N0Z25ldG1haW4ucHnaCDxs\nYW1iZGE+dAAAAPMAAAAA\n", null, null], "function_type": "lambda", "module": "__main__", "output_shape": null, "output_shape_type": "raw", "output_shape_module": null, "arguments": {}}, "name": "lambda_145", "inbound_nodes": [[["conv_gr_u2d_145", 0, 0, {}]]]}, {"class_name": "ConvGRU2D", "config": {"name": "conv_gr_u2d_146", "trainable": true, "dtype": "float32", "filters": 64, "kernel_size": [3, 3], "padding": "same", "activation": "tanh", "recurrent_activation": "sigmoid"}, "name": "conv_gr_u2d_146", "inbound_nodes": [[["conv_gr_u2d_145", 0, 0, {}]]]}, {"class_name": "Conv2D", "config": {"name": "conv2d_3414", "trainable": true, "dtype": "float32", "filters": 21, "kernel_size": [3, 3], "strides": [1, 1], "padding": "same", "data_format": "channels_last", "dilation_rate": [1, 1], "groups": 1, "activation": "linear", "use_bias": true, "kernel_initializer": {"class_name": "GlorotUniform", "config": {"seed": null}}, "bias_initializer": {"class_name": "Zeros", "config": {}}, "kernel_regularizer": null, "bias_regularizer": null, "activity_regularizer": null, "kernel_constraint": null, "bias_constraint": null}, "name": "conv2d_3414", "inbound_nodes": [[["activation_3704", 0, 0, {}]]]}, {"class_name": "Conv2D", "config": {"name": "conv2d_3415", "trainable": true, "dtype": "float32", "filters": 21, "kernel_size": [6, 6], "strides": [1, 1], "padding": "same", "data_format": "channels_last", "dilation_rate": [1, 1], "groups": 1, "activation": "linear", "use_bias": true, "kernel_initializer": {"class_name": "GlorotUniform", "config": {"seed": null}}, "bias_initializer": {"class_name": "Zeros", "config": {}}, "kernel_regularizer": null, "bias_regularizer": null, "activity_regularizer": null, "kernel_constraint": null, "bias_constraint": null}, "name": "conv2d_3415", "inbound_nodes": [[["activation_3704", 0, 0, {}]]]}, {"class_name": "Conv2D", "config": {"name": "conv2d_3416", "trainable": true, "dtype": "float32", "filters": 21, "kernel_size": [9, 9], "strides": [1, 1], "padding": "same", "data_format": "channels_last", "dilation_rate": [1, 1], "groups": 1, "activation": "linear", "use_bias": true, "kernel_initializer": {"class_name": "GlorotUniform", "config": {"seed": null}}, "bias_initializer": {"class_name": "Zeros", "config": {}}, "kernel_regularizer": null, "bias_regularizer": null, "activity_regularizer": null, "kernel_constraint": null, "bias_constraint": null}, "name": "conv2d_3416", "inbound_nodes": [[["activation_3704", 0, 0, {}]]]}, {"class_name": "Conv2D", "config": {"name": "conv2d_3436", "trainable": true, "dtype": "float32", "filters": 21, "kernel_size": [3, 3], "strides": [1, 1], "padding": "same", "data_format": "channels_last", "dilation_rate": [1, 1], "groups": 1, "activation": "linear", "use_bias": true, "kernel_initializer": {"class_name": "GlorotUniform", "config": {"seed": null}}, "bias_initializer": {"class_name": "Zeros", "config": {}}, "kernel_regularizer": null, "bias_regularizer": null, "activity_regularizer": null, "kernel_constraint": null, "bias_constraint": null}, "name": "conv2d_3436", "inbound_nodes": [[["activation_3728", 0, 0, {}]]]}, {"class_name": "Conv2D", "config": {"name": "conv2d_3437", "trainable": true, "dtype": "float32", "filters": 21, "kernel_size": [6, 6], "strides": [1, 1], "padding": "same", "data_format": "channels_last", "dilation_rate": [1, 1], "groups": 1, "activation": "linear", "use_bias": true, "kernel_initializer": {"class_name": "GlorotUniform", "config": {"seed": null}}, "bias_initializer": {"class_name": "Zeros", "config": {}}, "kernel_regularizer": null, "bias_regularizer": null, "activity_regularizer": null, "kernel_constraint": null, "bias_constraint": null}, "name": "conv2d_3437", "inbound_nodes": [[["activation_3728", 0, 0, {}]]]}, {"class_name": "Conv2D", "config": {"name": "conv2d_3438", "trainable": true, "dtype": "float32", "filters": 21, "kernel_size": [9, 9], "strides": [1, 1], "padding": "same", "data_format": "channels_last", "dilation_rate": [1, 1], "groups": 1, "activation": "linear", "use_bias": true, "kernel_initializer": {"class_name": "GlorotUniform", "config": {"seed": null}}, "bias_initializer": {"class_name": "Zeros", "config": {}}, "kernel_regularizer": null, "bias_regularizer": null, "activity_regularizer": null, "kernel_constraint": null, "bias_constraint": null}, "name": "conv2d_3438", "inbound_nodes": [[["activation_3728", 0, 0, {}]]]}, {"class_name": "Activation", "config": {"name": "activation_3752", "trainable": true, "dtype": "float32", "activation": "relu"}, "name": "activation_3752", "inbound_nodes": [[["batch_normalization_3752", 0, 0, {}]]]}, {"class_name": "BatchNormalization", "config": {"name": "batch_normalization_3776", "trainable": true, "dtype": "float32", "axis": [3], "momentum": 0.99, "epsilon": 0.001, "center": true, "scale": true, "beta_initializer": {"class_name": "Zeros", "config": {}}, "gamma_initializer": {"class_name": "Ones", "config": {}}, "moving_mean_initializer": {"class_name": "Zeros", "config": {}}, "moving_variance_initializer": {"class_name": "Ones", "config": {}}, "beta_regularizer": null, "gamma_regularizer": null, "beta_constraint": null, "gamma_constraint": null}, "name": "batch_normalization_3776", "inbound_nodes": [[["conv2d_transpose_444", 0, 0, {}]]]}, {"class_name": "Conv2DTranspose", "config": {"name": "conv2d_transpose_447", "trainable": true, "dtype": "float32", "filters": 64, "kernel_size": [3, 3], "strides": [2, 2], "padding": "valid", "data_format": "channels_last", "dilation_rate": [1, 1], "groups": 1, "activation": "linear", "use_bias": true, "kernel_initializer": {"class_name": "GlorotUniform", "config": {"seed": null}}, "bias_initializer": {"class_name": "Zeros", "config": {}}, "kernel_regularizer": null, "bias_regularizer": null, "activity_regularizer": null, "kernel_constraint": null, "bias_constraint": null, "output_padding": null}, "name": "conv2d_transpose_447", "inbound_nodes": [[["lambda_145", 0, 0, {}]]]}, {"class_name": "Lambda", "config": {"name": "lambda_146", "trainable": true, "dtype": "float32", "function": ["4wEAAAAAAAAAAAAAAAEAAAAHAAAAUwAAAHMiAAAAfABkAGQAhQJkAWQAZACFAmQAZACFAmQAZACF\nAmYFGQBTAKkCTun/////qQCpAdoBeHIDAAAAcgMAAAD6E2Q6L29wL3N0Z25ldG1haW4ucHnaCDxs\nYW1iZGE+dAAAAPMAAAAA\n", null, null], "function_type": "lambda", "module": "__main__", "output_shape": null, "output_shape_type": "raw", "output_shape_module": null, "arguments": {}}, "name": "lambda_146", "inbound_nodes": [[["conv_gr_u2d_146", 0, 0, {}]]]}, {"class_name": "ConvGRU2D", "config": {"name": "conv_gr_u2d_147", "trainable": true, "dtype": "float32", "filters": 64, "kernel_size": [3, 3], "padding": "same", "activation": "tanh", "recurrent_activation": "sigmoid"}, "name": "conv_gr_u2d_147", "inbound_no…
tion_4804", "inbound_nodes": [[["conv2d_4421", 0, 0, {}]]]}, {"class_name": "BatchNormalization", "config": {"name": "batch_normalization_4805", "trainable": true, "dtype": "float32", "axis": [3], "momentum": 0.99, "epsilon": 0.001, "center": true, "scale": true, "beta_initializer": {"class_name": "Zeros", "config": {}}, "gamma_initializer": {"class_name": "Ones", "config": {}}, "moving_mean_initializer": {"class_name": "Zeros", "config": {}}, "moving_variance_initializer": {"class_name": "Ones", "config": {}}, "beta_regularizer": null, "gamma_regularizer": null, "beta_constraint": null, "gamma_constraint": null}, "name": "batch_normalization_4805", "inbound_nodes": [[["conv2d_4422", 0, 0, {}]]]}, {"class_name": "BatchNormalization", "config": {"name": "batch_normalization_4806", "trainable": true, "dtype": "float32", "axis": [3], "momentum": 0.99, "epsilon": 0.001, "center": true, "scale": true, "beta_initializer": {"class_name": "Zeros", "config": {}}, "gamma_initializer": {"class_name": "Ones", "config": {}}, "moving_mean_initializer": {"class_name": "Zeros", "config": {}}, "moving_variance_initializer": {"class_name": "Ones", "config": {}}, "beta_regularizer": null, "gamma_regularizer": null, "beta_constraint": null, "gamma_constraint": null}, "name": "batch_normalization_4806", "inbound_nodes": [[["conv2d_4423", 0, 0, {}]]]}, {"class_name": "Conv2D", "config": {"name": "conv2d_4443", "trainable": true, "dtype": "float32", "filters": 21, "kernel_size": [3, 3], "strides": [1, 1], "padding": "same", "data_format": "channels_last", "dilation_rate": [1, 1], "groups": 1, "activation": "linear", "use_bias": true, "kernel_initializer": {"class_name": "GlorotUniform", "config": {"seed": null}}, "bias_initializer": {"class_name": "Zeros", "config": {}}, "kernel_regularizer": null, "bias_regularizer": null, "activity_regularizer": null, "kernel_constraint": null, "bias_constraint": null}, "name": "conv2d_4443", "inbound_nodes": [[["concatenate_1409", 0, 0, {}]]]}, {"class_name": "Conv2D", "config": {"name": "conv2d_4444", "trainable": true, "dtype": "float32", "filters": 21, "kernel_size": [6, 6], "strides": [1, 1], "padding": "same", "data_format": "channels_last", "dilation_rate": [1, 1], "groups": 1, "activation": "linear", "use_bias": true, "kernel_initializer": {"class_name": "GlorotUniform", "config": {"seed": null}}, "bias_initializer": {"class_name": "Zeros", "config": {}}, "kernel_regularizer": null, "bias_regularizer": null, "activity_regularizer": null, "kernel_constraint": null, "bias_constraint": null}, "name": "conv2d_4444", "inbound_nodes": [[["concatenate_1409", 0, 0, {}]]]}, {"class_name": "Conv2D", "config": {"name": "conv2d_4445", "trainable": true, "dtype": "float32", "filters": 21, "kernel_size": [9, 9], "strides": [1, 1], "padding": "same", "data_format": "channels_last", "dilation_rate": [1, 1], "groups": 1, "activation": "linear", "use_bias": true, "kernel_initializer": {"class_name": "GlorotUniform", "config": {"seed": null}}, "bias_initializer": {"class_name": "Zeros", "config": {}}, "kernel_regularizer": null, "bias_regularizer": null, "activity_regularizer": null, "kernel_constraint": null, "bias_constraint": null}, "name": "conv2d_4445", "inbound_nodes": [[["concatenate_1409", 0, 0, {}]]]}, {"class_name": "Concatenate", "config": {"name": "concatenate_1362", "trainable": true, "dtype": "float32", "axis": -1}, "name": "concatenate_1362", "inbound_nodes": [[["concatenate_1355", 0, 0, {}], ["activation_4663", 0, 0, {}]]]}, {"class_name": "Activation", "config": {"name": "activation_4687", "trainable": true, "dtype": "float32", "activation": "relu"}, "name": "activation_4687", "inbound_nodes": [[["batch_normalization_4687", 0, 0, {}]]]}, {"class_name": "BatchNormalization", "config": {"name": "batch_normalization_4711", "trainable": true, "dtype": "float32", "axis": [3], "momentum": 0.99, "epsilon": 0.001, "center": true, "scale": true, "beta_initializer": {"class_name": "Zeros", "config": {}}, "gamma_initializer": {"class_name": "Ones", "config": {}}, "moving_mean_initializer": {"class_name": "Zeros", "config": {}}, "moving_variance_initializer": {"class_name": "Ones", "config": {}}, "beta_regularizer": null, "gamma_regularizer": null, "beta_constraint": null, "gamma_constraint": null}, "name": "batch_normalization_4711", "inbound_nodes": [[["conv2d_4336", 0, 0, {}]]]}, {"class_name": "Conv2D", "config": {"name": "conv2d_4358", "trainable": true, "dtype": "float32", "filters": 64, "kernel_size": [1, 1], "strides": [1, 1], "padding": "same", "data_format": "channels_last", "dilation_rate": [1, 1], "groups": 1, "activation": "linear", "use_bias": true, "kernel_initializer": {"class_name": "GlorotUniform", "config": {"seed": null}}, "bias_initializer": {"class_name": "Zeros", "config": {}}, "kernel_regularizer": null, "bias_regularizer": null, "activity_regularizer": null, "kernel_constraint": null, "bias_constraint": null}, "name": "conv2d_4358", "inbound_nodes": [[["concatenate_1382", 0, 0, {}]]]}, {"class_name": "Concatenate", "config": {"name": "concatenate_1389", "trainable": true, "dtype": "float32", "axis": -1}, "name": "concatenate_1389", "inbound_nodes": [[["activation_4752", 0, 0, {}], ["concatenate_1388", 0, 0, {}], ["add_1197", 0, 0, {}]]]}, {"class_name": "Add", "config": {"name": "add_1203", "trainable": true, "dtype": "float32"}, "name": "add_1203", "inbound_nodes": [[["activation_4780", 0, 0, {}], ["activation_4781", 0, 0, {}], ["activation_4782", 0, 0, {}]]]}, {"class_name": "Activation", "config": {"name": "activation_4804", "trainable": true, "dtype": "float32", "activation": "relu"}, "name": "activation_4804", "inbound_nodes": [[["batch_normalization_4804", 0, 0, {}]]]}, {"class_name": "Activation", "config": {"name": "activation_4805", "trainable": true, "dtype": "float32", "activation": "relu"}, "name": "activation_4805", "inbound_nodes": [[["batch_normalization_4805", 0, 0, {}]]]}, {"class_name": "Activation", "config": {"name": "activation_4806", "trainable": true, "dtype": "float32", "activation": "relu"}, "name": "activation_4806", "inbound_nodes": [[["batch_normalization_4806", 0, 0, {}]]]}, {"class_name": "BatchNormalization", "config": {"name": "batch_normalization_4828", "trainable": true, "dtype": "float32", "axis": [3], "momentum": 0.99, "epsilon": 0.001, "center": true, "scale": true, "beta_initializer": {"class_name": "Zeros", "config": {}}, "gamma_initializer": {"class_name": "Ones", "config": {}}, "moving_mean_initializer": {"class_name": "Zeros", "config": {}}, "moving_variance_initializer": {"class_name": "Ones", "config": {}}, "beta_regularizer": null, "gamma_regularizer": null, "beta_constraint": null, "gamma_constraint": null}, "name": "batch_normalization_4828", "inbound_nodes": [[["conv2d_4443", 0, 0, {}]]]}, {"class_name": "BatchNormalization", "config": {"name": "batch_normalization_4829", "trainable": true, "dtype": "float32", "axis": [3], "momentum": 0.99, "epsilon": 0.001, "center": true, "scale": true, "beta_initializer": {"class_name": "Zeros", "config": {}}, "gamma_initializer": {"class_name": "Ones", "config": {}}, "moving_mean_initializer": {"class_name": "Zeros", "config": {}}, "moving_variance_initializer": {"class_name": "Ones", "config": {}}, "beta_regularizer": null, "gamma_regularizer": null, "beta_constraint": null, "gamma_constraint": null}, "name": "batch_normalization_4829", "inbound_nodes": [[["conv2d_4444", 0, 0, {}]]]}, {"class_name": "BatchNormalization", "config": {"name": "batch_normalization_4830", "trainable": true, "dtype": "float32", "axis": [3], "momentum": 0.99, "epsilon": 0.001, "center": true, "scale": true, "beta_initializer": {"class_name": "Zeros", "config": {}}, "gamma_initializer": {"class_name": "Ones", "config": {}}, "moving_mean_initializer": {"class_name": "Zeros", "config": {}}, "moving_variance_initializer": {"class_name": "Ones", "config": {}}, "beta_regularizer": null, "gamma_regularizer": null, "beta_constraint": null, "gamma_constraint": null}, "name": "batch_normalization_4830", "inbound_nodes": [[["conv2d_4445", 0, 0, {}]]]}, {"class_name": "Concatenate", "config": {"name": "concatenate_1369", "trainable": true, "dtype": "float32", "axis": -1}, "name": "concatenate_1369", "inbound_nodes": [[["concatenate_1362", 0, 0, {}], ["activation_4687", 0, 0, {}]]]}, {"class_name": "Activation", "config": {"name": "activation_4711", "trainable": true, "dtype": "float32", "activation": "relu"}, "name": "activation_4711", "inbound_nodes": [[["batch_normalization_4711", 0, 0, {}]]]}, {"class_name": "BatchNormalization", "config": {"name": "batch_normalization_4735", "trainable": true, "dtype": "float32", "axis": [3], "momentum": 0.99, "epsilon": 0.001, "center": true, "scale": true, "beta_initializer": {"class_name": "Zeros", "config": {}}, "gamma_initializer": {"class_name": "Ones", "config": {}}, "moving_mean_initializer": {"class_name": "Zeros", "config": {}}, "moving_variance_initializer": {"class_name": "Ones", "config": {}}, "beta_regularizer": null, "gamma_regularizer": null, "beta_constraint": null, "gamma_constraint": null}, "name": "batch_normalization_4735", "inbound_nodes": [[["conv2d_4358", 0, 0, {}]]]}, {"class_name": "Conv2D", "config": {"name": "conv2d_4380", "trainable": true, "dtype": "float32", "filters": 64, "kernel_size": [1, 1], "strides": [1, 1], "padding": "same", "data_format": "channels_last", "dilation_rate": [1, 1], "groups": 1, "activation": "linear", "use_bias": true, "kernel_initializer": {"class_name": "GlorotUniform", "config": {"seed": null}}, "bias_initializer": {"class_name": "Zeros", "config": {}}, "kernel_regularizer": null, "bias_regularizer": null, "activity_regularizer": null, "kernel_constraint": null, "bias_constraint": null}, "name": "conv2d_4380", "inbound_nodes": [[["concatenate_1389", 0, 0, {}]]]}, {"class_name": "Concatenate", "config": {"name": "concatenate_1396", "trainable": true, "dtype": "float32", "axis": -1}, "name": "concatenate_1396", "inbound_nodes": [[["activation_4776", 0, 0, {}], ["concatenate_1395", 0, 0, {}], ["add_1203", 0, 0, {}]]]}, {"class_name": "Add", "config": {"name": "add_1209", "trainable": true, "dtype": "float32"}, "name": "add_1209", "inbound_nodes": [[["activation_4804", 0, 0, {}], ["activation_4805", 0, 0, {}], ["activation_4806", 0, 0, {}]]]}, {"class_name": "Activation", "config": {"name": "activation_4828", "trainable": true, "dtype": "float32", "activation": "relu"}, "name": "activation_4828", "inbound_nodes": [[["batch_normalization_4828", 0, 0, {}]]]}, {"class_name": "Activation", "config": {"name": "activation_4829", "trainable": true, "dtype": "float32", "activation": "relu"}, "name": "activation_4829", "inbound_nodes": [[["batch_normalization_4829", 0, 0, {}]]]}, {"class_name": "Activation", "config": {"name": "activation_4830", "trainable": true, "dtype": "float32", "activation": "relu"}, "name": "activation_4830", "inbound_nodes": [[["batch_normalization_4830", 0, 0, {}]]]}, {"class_name": "Concatenate", "config": {"name": "concatenate_1376", "trainable": true, "dtype": "float32", "axis": -1}, "name": "concatenate_1376", "inbound_nodes": [[["concatenate_1369", 0, 0, {}], ["activation_4711", 0, 0, {}]]]}, {"class_name": "Activation", "config": {"name": "activation_4735", "trainable": true, "dtype": "float32", "activation": "relu"}, "name": "activation_4735", "inbound_nodes": [[["batch_normalization_4735", 0, 0, {}]]]}, {"class_name": "BatchNormalization", "config": {"name": "batch_normalization_4759", "trainable": true, "dtype": "float32", "axis": [3], "momentum": 0.99, "epsilon": 0.001, "center": true, "scale": true, "beta_initializer": {"class_name": "Zeros", "config": {}}, "gamma_initializer": {"class_name": "Ones", "config": {}}, "moving_mean_initializer": {"class_name": "Zeros", "config": {}}, "moving_variance_initializer": {"class_name": "Ones", "config": {}}, "beta_regularizer": null, "gamma_regularizer": null, "beta_constraint": null, "gamma_constraint": null}, "name": "batch_normalization_4759", "inbound_nodes": [[["conv2d_4380", 0, 0, {}]]]}, {"class_name": "Conv2D", "config": {"name": "conv2d_4402", "trainable": true, "dtype": "float32", "filters": 64, "kernel_size": [1, 1], "strides": [1, 1], "padding": "same", "data_format": "channels_last", "dilation_rate": [1, 1], "groups": 1, "activation": "linear", "use_bias": true, "kernel_initializer": {"class_name": "GlorotUniform", "config": {"seed": null}}, "bias_initializer": {"class_name": "Zeros", "config": {}}, "kernel_regularizer": null, "bias_regularizer": null, "activity_regularizer": null, "kernel_constraint": null, "bias_constraint": null}, "name": "conv2d_4402", "inbound_nodes": [[["concatenate_1396", 0, 0, {}]]]}, {"class_name": "Concatenate", "config": {"name": "concatenate_1403", "trainable": true, "dtype": "float32", "axis": -1}, "name": "concatenate_1403", "inbound_nodes": [[["activation_4800", 0, 0, {}], ["concatenate_1402", 0, 0, {}], ["add_1209", 0, 0, {}]]]}, {"class_name": "Add", "config": {"name": "add_1215", "trainable": true, "dtype": "float32"}, "name": "add_1215", "inbound_nodes": [[["activation_4828", 0, 0, {}], ["activation_4829", 0, 0, {}], ["activation_4830", 0, 0, {}]]]}, {"class_name": "Concatenate", "config": {"name": "concatenate_1383", "trainable": true, "dtype": "float32", "axis": -1}, "name": "concatenate_1383", "inbound_nodes": [[["concatenate_1376", 0, 0, {}], ["activation_4735", 0, 0, {}]]]}, {"class_name": "Activation", "config": {"name": "activation_4759", "trainable": true, "dtype": "float32", "activation": "relu"}, "name": "activation_4759", "inbound_nodes": [[["batch_normalization_4759", 0, 0, {}]]]}, {"class_name": "BatchNormalization", "config": {"name": "batch_normalization_4783", "trainable": true, "dtype": "float32", "axis": [3], "momentum": 0.99, "epsilon": 0.001, "center": true, "scale": true, "beta_initializer": {"class_name": "Zeros", "config": {}}, "gamma_initializer": {"class_name": "Ones", "config": {}}, "moving_mean_initializer": {"class_name": "Zeros", "config": {}}, "moving_variance_initializer": {"class_name": "Ones", "config": {}}, "beta_regularizer": null, "gamma_regularizer": null, "beta_constraint": null, "gamma_constraint": null}, "name": "batch_normalization_4783", "inbound_nodes": [[["conv2d_4402", 0, 0, {}]]]}, {"class_name": "Conv2D", "config": {"name": "conv2d_4424", "trainable": true, "dtype": "float32", "filters": 64, "kernel_size": [1, 1], "strides": [1, 1], "padding": "same", "data_format": "channels_last", "dilation_rate": [1, 1], "groups": 1, "activation": "linear", "use_bias": true, "kernel_initializer": {"class_name": "GlorotUniform", "config": {"seed": null}}, "bias_initializer": {"class_name": "Zeros", "config": {}}, "kernel_regularizer": null, "bias_regularizer": null, "activity_regularizer": null, "kernel_constraint": null, "bias_constraint": null}, "name": "conv2d_4424", "inbound_nodes": [[["concatenate_1403", 0, 0, {}]]]}, {"class_name": "Concatenate", "config": {"name": "concatenate_1410", "trainable": true, "dtype": "float32", "axis": -1}, "name": "concatenate_1410", "inbound_nodes": [[["activation_4824", 0, 0, {}], ["concatenate_1409", 0, 0, {}], ["add_1215", 0, 0, {}]]]}, {"class_name": "Concatenate", "config": {"name": "concatenate_1390", "trainable": true, "dtype": "float32", "axis": -1}, "name": "concatenate_1390", "inbound_nodes": [[["concatenate_1383", 0, 0, {}], ["activation_4759", 0, 0, {}]]]}, {"class_name": "Activation", "config": {"name": "activation_4783", "trainable": true, "dtype": "float32", "activation": "relu"}, "name": "activation_4783", "inbound_nodes": [[["batch_normalization_4783", 0, 0, {}]]]}, {"class_name": "BatchNormalization", "config": {"name": "batch_normalization_4807", "trainable": true, "dtype": "float32", "axis": [3], "momentum": 0.99, "epsilon": 0.001, "center": true, "scale": true, "beta_initializer": {"class_name": "Zeros", "config": {}}, "gamma_initializer": {"class_name": "Ones", "config": {}}, "moving_mean_initializer": {"class_name": "Zeros", "config": {}}, "moving_variance_initializer": {"class_name": "Ones", "config": {}}, "beta_regularizer": null, "gamma_regularizer": null, "beta_constraint": null, "gamma_constraint": null}, "name": "batch_normalization_4807", "inbound_nodes": [[["conv2d_4424", 0, 0, {}]]]}, {"class_name": "Conv2D", "config": {"name": "conv2d_4446", "trainable": true, "dtype": "float32", "filters": 64, "kernel_size": [1, 1], "strides": [1, 1], "padding": "same", "data_format": "channels_last", "dilation_rate": [1, 1], "groups": 1, "activation": "linear", "use_bias": true, "kernel_initializer": {"class_name": "GlorotUniform", "config": {"seed": null}}, "bias_initializer": {"class_name": "Zeros", "config": {}}, "kernel_regularizer": null, "bias_regularizer": null, "activity_regularizer": null, "kernel_constraint": null, "bias_constraint": null}, "name": "conv2d_4446", "inbound_nodes": [[["concatenate_1410", 0, 0, {}]]]}, {"class_name": "Concatenate", "config": {"name": "concatenate_1397", "trainable": true, "dtype": "float32", "axis": -1}, "name": "concatenate_1397", "inbound_nodes": [[["concatenate_1390", 0, 0, {}], ["activation_4783", 0, 0, {}]]]}, {"class_name": "Activation", "config": {"name": "activation_4807", "trainable": true, "dtype": "float32", "activation": "relu"}, "name": "activation_4807", "inbound_nodes": [[["batch_normalization_4807", 0, 0, {}]]]}, {"class_name": "BatchNormalization", "config": {"name": "batch_normalization_4831", "trainable": true, "dtype": "float32", "axis": [3], "momentum": 0.99, "epsilon": 0.001, "center": true, "scale": true, "beta_initializer": {"class_name": "Zeros", "config": {}}, "gamma_initializer": {"class_name": "Ones", "config": {}}, "moving_mean_initializer": {"class_name": "Zeros", "config": {}}, "moving_variance_initializer": {"class_name": "Ones", "config": {}}, "beta_regularizer": null, "gamma_regularizer": null, "beta_constraint": null, "gamma_constraint": null}, "name": "batch_normalization_4831", "inbound_nodes": [[["conv2d_4446", 0, 0, {}]]]}, {"class_name": "Concatenate", "config": {"name": "concatenate_1404", "trainable": true, "dtype": "float32", "axis": -1}, "name": "concatenate_1404", "inbound_nodes": [[["concatenate_1397", 0, 0, {}], ["activation_4807", 0, 0, {}]]]}, {"class_name": "Activation", "config": {"name": "activation_4831", "trainable": true, "dtype": "float32", "activation": "relu"}, "name": "activation_4831", "inbound_nodes": [[["batch_normalization_4831", 0, 0, {}]]]}, {"class_name": "Concatenate", "config": {"name": "concatenate_1411", "trainable": true, "dtype": "float32", "axis": -1}, "name": "concatenate_1411", "inbound_nodes": [[["concatenate_1404", 0, 0, {}], ["activation_4831", 0, 0, {}]]]}, {"class_name": "Conv2D", "config": {"name": "conv2d_3435", "trainable": true, "dtype": "float32", "filters": 1, "kernel_size": [1, 1], "strides": [1, 1], "padding": "same", "data_format": "channels_last", "dilation_rate": [1, 1], "groups": 1, "activation": "sigmoid", "use_bias": true, "kernel_initializer": {"class_name": "GlorotUniform", "config": {"seed": null}}, "bias_initializer": {"class_name": "Zeros", "config": {}}, "kernel_regularizer": null, "bias_regularizer": null, "activity_regularizer": null, "kernel_constraint": null, "bias_constraint": null}, "name": "conv2d_3435", "inbound_nodes": [[["activation_3727", 0, 0, {}]]]}, {"class_name": "Conv2D", "config": {"name": "conv2d_3457", "trainable": true, "dtype": "float32", "filters": 1, "kernel_size": [1, 1], "strides": [1, 1], "padding": "same", "data_format": "channels_last", "dilation_rate": [1, 1], "groups": 1, "activation": "sigmoid", "use_bias": true, "kernel_initializer": {"class_name": "GlorotUniform", "config": {"seed": null}}, "bias_initializer": {"class_name": "Zeros", "config": {}}, "kernel_regularizer": null, "bias_regularizer": null, "activity_regularizer": null, "kernel_constraint": null, "bias_constraint": null}, "name": "conv2d_3457", "inbound_nodes": [[["concatenate_1096", 0, 0, {}]]]}, {"class_name": "Conv2D", "config": {"name": "conv2d_3479", "trainable": true, "dtype": "float32", "filters": 1, "kernel_size": [1, 1], "strides": [1, 1], "padding": "same", "data_format": "channels_last", "dilation_rate": [1, 1], "groups": 1, "activation": "sigmoid", "use_bias": true, "kernel_initializer": {"class_name": "GlorotUniform", "config": {"seed": null}}, "bias_initializer": {"class_name": "Zeros", "config": {}}, "kernel_regularizer": null, "bias_regularizer": null, "activity_regularizer": null, "kernel_constraint": null, "bias_constraint": null}, "name": "conv2d_3479", "inbound_nodes": [[["concatenate_1103", 0, 0, {}]]]}, {"class_name": "Conv2D", "config": {"name": "conv2d_3501", "trainable": true, "dtype": "float32", "filters": 1, "kernel_size": [1, 1], "strides": [1, 1], "padding": "same", "data_format": "channels_last", "dilation_rate": [1, 1], "groups": 1, "activation": "sigmoid", "use_bias": true, "kernel_initializer": {"class_name": "GlorotUniform", "config": {"seed": null}}, "bias_initializer": {"class_name": "Zeros", "config": {}}, "kernel_regularizer": null, "bias_regularizer": null, "activity_regularizer": null, "kernel_constraint": null, "bias_constraint": null}, "name": "conv2d_3501", "inbound_nodes": [[["concatenate_1110", 0, 0, {}]]]}, {"class_name": "Conv2D", "config": {"name": "conv2d_3523", "trainable": true, "dtype": "float32", "filters": 1, "kernel_size": [1, 1], "strides": [1, 1], "padding": "same", "data_format": "channels_last", "dilation_rate": [1, 1], "groups": 1, "activation": "sigmoid", "use_bias": true, "kernel_initializer": {"class_name": "GlorotUniform", "config": {"seed": null}}, "bias_initializer": {"class_name": "Zeros", "config": {}}, "kernel_regularizer": null, "bias_regularizer": null, "activity_regularizer": null, "kernel_constraint": null, "bias_constraint": null}, "name": "conv2d_3523", "inbound_nodes": [[["concatenate_1117", 0, 0, {}]]]}, {"class_name": "Conv2D", "config": {"name": "conv2d_3545", "trainable": true, "dtype": "float32", "filters": 1, "kernel_size": [1, 1], "strides": [1, 1], "padding": "same", "data_format": "channels_last", "dilation_rate": [1, 1], "groups": 1, "activation": "sigmoid", "use_bias": true, "kernel_initializer": {"class_name": "GlorotUniform", "config": {"seed": null}}, "bias_initializer": {"class_name": "Zeros", "config": {}}, "kernel_regularizer": null, "bias_regularizer": null, "activity_regularizer": null, "kernel_constraint": null, "bias_constraint": null}, "name": "conv2d_3545", "inbound_nodes": [[["concatenate_1124", 0, 0, {}]]]}, {"class_name": "Conv2D", "config": {"name": "conv2d_3567", "trainable": true, "dtype": "float32", "filters": 1, "kernel_size": [1, 1], "strides": [1, 1], "padding": "same", "data_format": "channels_last", "dilation_rate": [1, 1], "groups": 1, "activation": "sigmoid", "use_bias": true, "kernel_initializer": {"class_name": "GlorotUniform", "config": {"seed": null}}, "bias_initializer": {"class_name": "Zeros", "config": {}}, "kernel_regularizer": null, "bias_regularizer": null, "activity_regularizer": null, "kernel_constraint": null, "bias_constraint": null}, "name": "conv2d_3567", "inbound_nodes": [[["concatenate_1131", 0, 0, {}]]]}, {"class_name": "Conv2D", "config": {"name": "conv2d_3589", "trainable": true, "dtype": "float32", "filters": 1, "kernel_size": [1, 1], "strides": [1, 1], "padding": "same", "data_format": "channels_last", "dilation_rate": [1, 1], "groups": 1, "activation": "sigmoid", "use_bias": true, "kernel_initializer": {"class_name": "GlorotUniform", "config": {"seed": null}}, "bias_initializer": {"class_name": "Zeros", "config": {}}, "kernel_regularizer": null, "bias_regularizer": null, "activity_regularizer": null, "kernel_constraint": null, "bias_constraint": null}, "name": "conv2d_3589", "inbound_nodes": [[["concatenate_1138", 0, 0, {}]]]}, {"class_name": "Conv2D", "config": {"name": "conv2d_3611", "trainable": true, "dtype": "float32", "filters": 1, "kernel_size": [1, 1], "strides": [1, 1], "padding": "same", "data_format": "channels_last", "dilation_rate": [1, 1], "groups": 1, "activation": "sigmoid", "use_bias": true, "kernel_initializer": {"class_name": "GlorotUniform", "config": {"seed": null}}, "bias_initializer": {"class_name": "Zeros", "config": {}}, "kernel_regularizer": null, "bias_regularizer": null, "activity_regularizer": null, "kernel_constraint": null, "bias_constraint": null}, "name": "conv2d_3611", "inbound_nodes": [[["concatenate_1145", 0, 0, {}]]]}, {"class_name": "Conv2D", "config": {"name": "conv2d_3633", "trainable": true, "dtype": "float32", "filters": 1, "kernel_size": [1, 1], "strides": [1, 1], "padding": "same", "data_format": "channels_last", "dilation_rate": [1, 1], "groups": 1, "activation": "sigmoid", "use_bias": true, "kernel_initializer": {"class_name": "GlorotUniform", "config": {"seed": null}}, "bias_initializer": {"class_name": "Zeros", "config": {}}, "kernel_regularizer": null, "bias_regularizer": null, "activity_regularizer": null, "kernel_constraint": null, "bias_constraint": null}, "name": "conv2d_3633", "inbound_nodes": [[["concatenate_1152", 0, 0, {}]]]}, {"class_name": "Conv2D", "config": {"name": "conv2d_3655", "trainable": true, "dtype": "float32", "filters": 1, "kernel_size": [1, 1], "strides": [1, 1], "padding": "same", "data_format": "channels_last", "dilation_rate": [1, 1], "groups": 1, "activation": "sigmoid", "use_bias": true, "kernel_initializer": {"class_name": "GlorotUniform", "config": {"seed": null}}, "bias_initializer": {"class_name": "Zeros", "config": {}}, "kernel_regularizer": null, "bias_regularizer": null, "activity_regularizer": null, "kernel_constraint": null, "bias_constraint": null}, "name": "conv2d_3655", "inbound_nodes": [[["concatenate_1159", 0, 0, {}]]]}, {"class_name": "Conv2D", "config": {"name": "conv2d_3677", "trainable": true, "dtype": "float32", "filters": 1, "kernel_size": [1, 1], "strides": [1, 1], "padding": "same", "data_format": "channels_last", "dilation_rate": [1, 1], "groups": 1, "activation": "sigmoid", "use_bias": true, "kernel_initializer": {"class_name": "GlorotUniform", "config": {"seed": null}}, "bias_initializer": {"class_name": "Zeros", "config": {}}, "kernel_regularizer": null, "bias_regularizer": null, "activity_regularizer": null, "kernel_constraint": null, "bias_constraint": null}, "name": "conv2d_3677", "inbound_nodes": [[["concatenate_1166", 0, 0, {}]]]}, {"class_name": "Conv2D", "config": {"name": "conv2d_3699", "trainable": true, "dtype": "float32", "filters": 1, "kernel_size": [1, 1], "strides": [1, 1], "padding": "same", "data_format": "channels_last", "dilation_rate": [1, 1], "groups": 1, "activation": "sigmoid", "use_bias": true, "kernel_initializer": {"class_name": "GlorotUniform", "config": {"seed": null}}, "bias_initializer": {"class_name": "Zeros", "config": {}}, "kernel_regularizer": null, "bias_regularizer": null, "activity_regularizer": null, "kernel_constraint": null, "bias_constraint": null}, "name": "conv2d_3699", "inbound_nodes": [[["concatenate_1173", 0, 0, {}]]]}, {"class_name": "Conv2D", "config": {"name": "conv2d_3721", "trainable": true, "dtype": "float32", "filters": 1, "kernel_size": [1, 1], "strides": [1, 1], "padding": "same", "data_format": "channels_last", "dilation_rate": [1, 1], "groups": 1, "activation": "sigmoid", "use_bias": true, "kernel_initializer": {"class_name": "GlorotUniform", "config": {"seed": null}}, "bias_initializer": {"class_name": "Zeros", "config": {}}, "kernel_regularizer": null, "bias_regularizer": null, "activity_regularizer": null, "kernel_constraint": null, "bias_constraint": null}, "name": "conv2d_3721", "inbound_nodes": [[["concatenate_1180", 0, 0, {}]]]}, {"class_name": "Conv2D", "config": {"name": "conv2d_3743", "trainable": true, "dtype": "float32", "filters": 1, "kernel_size": [1, 1], "strides": [1, 1], "padding": "same", "data_format": "channels_last", "dilation_rate": [1, 1], "groups": 1, "activation": "sigmoid", "use_bias": true, "kernel_initializer": {"class_name": "GlorotUniform", "config": {"seed": null}}, "bias_initializer": {"class_name": "Zeros", "config": {}}, "kernel_regularizer": null, "bias_regularizer": null, "activity_regularizer": null, "kernel_constraint": null, "bias_constraint": null}, "name": "conv2d_3743", "inbound_nodes": [[["concatenate_1187", 0, 0, {}]]]}, {"class_name": "Conv2D", "config": {"name": "conv2d_3765", "trainable": true, "dtype": "float32", "filters": 1, "kernel_size": [1, 1], "strides": [1, 1], "padding": "same", "data_format": "channels_last", "dilation_rate": [1, 1], "groups": 1, "activation": "sigmoid", "use_bias": true, "kernel_initializer": {"class_name": "GlorotUniform", "config": {"seed": null}}, "bias_initializer": {"class_name": "Zeros", "config": {}}, "kernel_regularizer": null, "bias_regularizer": null, "activity_regularizer": null, "kernel_constraint": null, "bias_constraint": null}, "name": "conv2d_3765", "inbound_nodes": [[["concatenate_1194", 0, 0, {}]]]}, {"class_name": "Conv2D", "config": {"name": "conv2d_3787", "trainable": true, "dtype": "float32", "filters": 1, "kernel_size": [1, 1], "strides": [1, 1], "padding": "same", "data_format": "channels_last", "dilation_rate": [1, 1], "groups": 1, "activation": "sigmoid", "use_bias": true, "kernel_initializer": {"class_name": "GlorotUniform", "config": {"seed": null}}, "bias_initializer": {"class_name": "Zeros", "config": {}}, "kernel_regularizer": null, "bias_regularizer": null, "activity_regularizer": null, "kernel_constraint": null, "bias_constraint": null}, "name": "conv2d_3787", "inbound_nodes": [[["concatenate_1201", 0, 0, {}]]]}, {"class_name": "Conv2D", "config": {"name": "conv2d_3809", "trainable": true, "dtype": "float32", "filters": 1, "kernel_size": [1, 1], "strides": [1, 1], "padding": "same", "data_format": "channels_last", "dilation_rate": [1, 1], "groups": 1, "activation": "sigmoid", "use_bias": true, "kernel_initializer": {"class_name": "GlorotUniform", "config": {"seed": null}}, "bias_initializer": {"class_name": "Zeros", "config": {}}, "kernel_regularizer": null, "bias_regularizer": null, "activity_regularizer": null, "kernel_constraint": null, "bias_constraint": null}, "name": "conv2d_3809", "inbound_nodes": [[["concatenate_1208", 0, 0, {}]]]}, {"class_name": "Conv2D", "config": {"name": "conv2d_3831", "trainable": true, "dtype": "float32", "filters": 1, "kernel_size": [1, 1], "strides": [1, 1], "padding": "same", "data_format": "channels_last", "dilation_rate": [1, 1], "groups": 1, "activation": "sigmoid", "use_bias": true, "kernel_initializer": {"class_name": "GlorotUniform", "config": {"seed": null}}, "bias_initializer": {"class_name": "Zeros", "config": {}}, "kernel_regularizer": null, "bias_regularizer": null, "activity_regularizer": null, "kernel_constraint": null, "bias_constraint": null}, "name": "conv2d_3831", "inbound_nodes": [[["concatenate_1215", 0, 0, {}]]]}, {"class_name": "Conv2D", "config": {"name": "conv2d_3853", "trainable": true, "dtype": "float32", "filters": 1, "kernel_size": [1, 1], "strides": [1, 1], "padding": "same", "data_format": "channels_last", "dilation_rate": [1, 1], "groups": 1, "activation": "sigmoid", "use_bias": true, "kernel_initializer": {"class_name": "GlorotUniform", "config": {"seed": null}}, "bias_initializer": {"class_name": "Zeros", "config": {}}, "kernel_regularizer": null, "bias_regularizer": null, "activity_regularizer": null, "kernel_constraint": null, "bias_constraint": null}, "name": "conv2d_3853", "inbound_nodes": [[["concatenate_1222", 0, 0, {}]]]}, {"class_name": "Conv2D", "config": {"name": "conv2d_3875", "trainable": true, "dtype": "float32", "filters": 1, "kernel_size": [1, 1], "strides": [1, 1], "padding": "same", "data_format": "channels_last", "dilation_rate": [1, 1], "groups": 1, "activation": "sigmoid", "use_bias": true, "kernel_initializer": {"class_name": "GlorotUniform", "config": {"seed": null}}, "bias_initializer": {"class_name": "Zeros", "config": {}}, "kernel_regularizer": null, "bias_regularizer": null, "activity_regularizer": null, "kernel_constraint": null, "bias_constraint": null}, "name": "conv2d_3875", "inbound_nodes": [[["concatenate_1229", 0, 0, {}]]]}, {"class_name": "Conv2D", "config": {"name": "conv2d_3897", "trainable": true, "dtype": "float32", "filters": 1, "kernel_size": [1, 1], "strides": [1, 1], "padding": "same", "data_format": "channels_last", "dilation_rate": [1, 1], "groups": 1, "activation": "sigmoid", "use_bias": true, "kernel_initializer": {"class_name": "GlorotUniform", "config": {"seed": null}}, "bias_initializer": {"class_name": "Zeros", "config": {}}, "kernel_regularizer": null, "bias_regularizer": null, "activity_regularizer": null, "kernel_constraint": null, "bias_constraint": null}, "name": "conv2d_3897", "inbound_nodes": [[["concatenate_1236", 0, 0, {}]]]}, {"class_name": "Conv2D", "config": {"name": "conv2d_3919", "trainable": true, "dtype": "float32", "filters": 1, "kernel_size": [1, 1], "strides": [1, 1], "padding": "same", "data_format": "channels_last", "dilation_rate": [1, 1], "groups": 1, "activation": "sigmoid", "use_bias": true, "kernel_initializer": {"class_name": "GlorotUniform", "config": {"seed": null}}, "bias_initializer": {"class_name": "Zeros", "config": {}}, "kernel_regularizer": null, "bias_regularizer": null, "activity_regularizer": null, "kernel_constraint": null, "bias_constraint": null}, "name": "conv2d_3919", "inbound_nodes": [[["concatenate_1243", 0, 0, {}]]]}, {"class_name": "Conv2D", "config": {"name": "conv2d_3941", "trainable": true, "dtype": "float32", "filters": 1, "kernel_size": [1, 1], "strides": [1, 1], "padding": "same", "data_format": "channels_last", "dilation_rate": [1, 1], "groups": 1, "activation": "sigmoid", "use_bias": true, "kernel_initializer": {"class_name": "GlorotUniform", "config": {"seed": null}}, "bias_initializer": {"class_name": "Zeros", "config": {}}, "kernel_regularizer": null, "bias_regularizer": null, "activity_regularizer": null, "kernel_constraint": null, "bias_constraint": null}, "name": "conv2d_3941", "inbound_nodes": [[["concatenate_1250", 0, 0, {}]]]}, {"class_name": "Conv2D", "config": {"name": "conv2d_3963", "trainable": true, "dtype": "float32", "filters": 1, "kernel_size": [1, 1], "strides": [1, 1], "padding": "same", "data_format": "channels_last", "dilation_rate": [1, 1], "groups": 1, "activation": "sigmoid", "use_bias": true, "kernel_initializer": {"class_name": "GlorotUniform", "config": {"seed": null}}, "bias_initializer": {"class_name": "Zeros", "config": {}}, "kernel_regularizer": null, "bias_regularizer": null, "activity_regularizer": null, "kernel_constraint": null, "bias_constraint": null}, "name": "conv2d_3963", "inbound_nodes": [[["concatenate_1257", 0, 0, {}]]]}, {"class_name": "Conv2D", "config": {"name": "conv2d_3985", "trainable": true, "dtype": "float32", "filters": 1, "kernel_size": [1, 1], "strides": [1, 1], "padding": "same", "data_format": "channels_last", "dilation_rate": [1, 1], "groups": 1, "activation": "sigmoid", "use_bias": true, "kernel_initializer": {"class_name": "GlorotUniform", "config": {"seed": null}}, "bias_initializer": {"class_name": "Zeros", "config": {}}, "kernel_regularizer": null, "bias_regularizer": null, "activity_regularizer": null, "kernel_constraint": null, "bias_constraint": null}, "name": "conv2d_3985", "inbound_nodes": [[["concatenate_1264", 0, 0, {}]]]}, {"class_name": "Conv2D", "config": {"name": "conv2d_4007", "trainable": true, "dtype": "float32", "filters": 1, "kernel_size": [1, 1], "strides": [1, 1], "padding": "same", "data_format": "channels_last", "dilation_rate": [1, 1], "groups": 1, "activation": "sigmoid", "use_bias": true, "kernel_initializer": {"class_name": "GlorotUniform", "config": {"seed": null}}, "bias_initializer": {"class_name": "Zeros", "config": {}}, "kernel_regularizer": null, "bias_regularizer": null, "activity_regularizer": null, "kernel_constraint": null, "bias_constraint": null}, "name": "conv2d_4007", "inbound_nodes": [[["concatenate_1271", 0, 0, {}]]]}, {"class_name": "Conv2D", "config": {"name": "conv2d_4029", "trainable": true, "dtype": "float32", "filters": 1, "kernel_size": [1, 1], "strides": [1, 1], "padding": "same", "data_format": "channels_last", "dilation_rate": [1, 1], "groups": 1, "activation": "sigmoid", "use_bias": true, "kernel_initializer": {"class_name": "GlorotUniform", "config": {"seed": null}}, "bias_initializer": {"class_name": "Zeros", "config": {}}, "kernel_regularizer": null, "bias_regularizer": null, "activity_regularizer": null, "kernel_constraint": null, "bias_constraint": null}, "name": "conv2d_4029", "inbound_nodes": [[["concatenate_1278", 0, 0, {}]]]}, {"class_name": "Conv2D", "config": {"name": "conv2d_4051", "trainable": true, "dtype": "float32", "filters": 1, "kernel_size": [1, 1], "strides": [1, 1], "padding": "same", "data_format": "channels_last", "dilation_rate": [1, 1], "groups": 1, "activation": "sigmoid", "use_bias": true, "kernel_initializer": {"class_name": "GlorotUniform", "config": {"seed": null}}, "bias_initializer": {"class_name": "Zeros", "config": {}}, "kernel_regularizer": null, "bias_regularizer": null, "activity_regularizer": null, "kernel_constraint": null, "bias_constraint": null}, "name": "conv2d_4051", "inbound_nodes": [[["concatenate_1285", 0, 0, {}]]]}, {"class_name": "Conv2D", "config": {"name": "conv2d_4073", "trainable": true, "dtype": "float32", "filters": 1, "kernel_size": [1, 1], "strides": [1, 1], "padding": "same", "data_format": "channels_last", "dilation_rate": [1, 1], "groups": 1, "activation": "sigmoid", "use_bias": true, "kernel_initializer": {"class_name": "GlorotUniform", "config": {"seed": null}}, "bias_initializer": {"class_name": "Zeros", "config": {}}, "kernel_regularizer": null, "bias_regularizer": null, "activity_regularizer": null, "kernel_constraint": null, "bias_constraint": null}, "name": "conv2d_4073", "inbound_nodes": [[["concatenate_1292", 0, 0, {}]]]}, {"class_name": "Conv2D", "config": {"name": "conv2d_4095", "trainable": true, "dtype": "float32", "filters": 1, "kernel_size": [1, 1], "strides": [1, 1], "padding": "same", "data_format": "channels_last", "dilation_rate": [1, 1], "groups": 1, "activation": "sigmoid", "use_bias": true, "kernel_initializer": {"class_name": "GlorotUniform", "config": {"seed": null}}, "bias_initializer": {"class_name": "Zeros", "config": {}}, "kernel_regularizer": null, "bias_regularizer": null, "activity_regularizer": null, "kernel_constraint": null, "bias_constraint": null}, "name": "conv2d_4095", "inbound_nodes": [[["concatenate_1299", 0, 0, {}]]]}, {"class_name": "Conv2D", "config": {"name": "conv2d_4117", "trainable": true, "dtype": "float32", "filters": 1, "kernel_size": [1, 1], "strides": [1, 1], "padding": "same", "data_format": "channels_last", "dilation_rate": [1, 1], "groups": 1, "activation": "sigmoid", "use_bias": true, "kernel_initializer": {"class_name": "GlorotUniform", "config": {"seed": null}}, "bias_initializer": {"class_name": "Zeros", "config": {}}, "kernel_regularizer": null, "bias_regularizer": null, "activity_regularizer": null, "kernel_constraint": null, "bias_constraint": null}, "name": "conv2d_4117", "inbound_nodes": [[["concatenate_1306", 0, 0, {}]]]}, {"class_name": "Conv2D", "config": {"name": "conv2d_4139", "trainable": true, "dtype": "float32", "filters": 1, "kernel_size": [1, 1], "strides": [1, 1], "padding": "same", "data_format": "channels_last", "dilation_rate": [1, 1], "groups": 1, "activation": "sigmoid", "use_bias": true, "kernel_initializer": {"class_name": "GlorotUniform", "config": {"seed": null}}, "bias_initializer": {"class_name": "Zeros", "config": {}}, "kernel_regularizer": null, "bias_regularizer": null, "activity_regularizer": null, "kernel_constraint": null, "bias_constraint": null}, "name": "conv2d_4139", "inbound_nodes": [[["concatenate_1313", 0, 0, {}]]]}, {"class_name": "Conv2D", "config": {"name": "conv2d_4161", "trainable": true, "dtype": "float32", "filters": 1, "kernel_size": [1, 1], "strides": [1, 1], "padding": "same", "data_format": "channels_last", "dilation_rate": [1, 1], "groups": 1, "activation": "sigmoid", "use_bias": true, "kernel_initializer": {"class_name": "GlorotUniform", "config": {"seed": null}}, "bias_initializer": {"class_name": "Zeros", "config": {}}, "kernel_regularizer": null, "bias_regularizer": null, "activity_regularizer": null, "kernel_constraint": null, "bias_constraint": null}, "name": "conv2d_4161", "inbound_nodes": [[["concatenate_1320", 0, 0, {}]]]}, {"class_name": "Conv2D", "config": {"name": "conv2d_4183", "trainable": true, "dtype": "float32", "filters": 1, "kernel_size": [1, 1], "strides": [1, 1], "padding": "same", "data_format": "channels_last", "dilation_rate": [1, 1], "groups": 1, "activation": "sigmoid", "use_bias": true, "kernel_initializer": {"class_name": "GlorotUniform", "config": {"seed": null}}, "bias_initializer": {"class_name": "Zeros", "config": {}}, "kernel_regularizer": null, "bias_regularizer": null, "activity_regularizer": null, "kernel_constraint": null, "bias_constraint": null}, "name": "conv2d_4183", "inbound_nodes": [[["concatenate_1327", 0, 0, {}]]]}, {"class_name": "Conv2D", "config": {"name": "conv2d_4205", "trainable": true, "dtype": "float32", "filters": 1, "kernel_size": [1, 1], "strides": [1, 1], "padding": "same", "data_format": "channels_last", "dilation_rate": [1, 1], "groups": 1, "activation": "sigmoid", "use_bias": true, "kernel_initializer": {"class_name": "GlorotUniform", "config": {"seed": null}}, "bias_initializer": {"class_name": "Zeros", "config": {}}, "kernel_regularizer": null, "bias_regularizer": null, "activity_regularizer": null, "kernel_constraint": null, "bias_constraint": null}, "name": "conv2d_4205", "inbound_nodes": [[["concatenate_1334", 0, 0, {}]]]}, {"class_name": "Conv2D", "config": {"name": "conv2d_4227", "trainable": true, "dtype": "float32", "filters": 1, "kernel_size": [1, 1], "strides": [1, 1], "padding": "same", "data_format": "channels_last", "dilation_rate": [1, 1], "groups": 1, "activation": "sigmoid", "use_bias": true, "kernel_initializer": {"class_name": "GlorotUniform", "config": {"seed": null}}, "bias_initializer": {"class_name": "Zeros", "config": {}}, "kernel_regularizer": null, "bias_regularizer": null, "activity_regularizer": null, "kernel_constraint": null, "bias_constraint": null}, "name": "conv2d_4227", "inbound_nodes": [[["concatenate_1341", 0, 0, {}]]]}, {"class_name": "Conv2D", "config": {"name": "conv2d_4249", "trainable": true, "dtype": "float32", "filters": 1, "kernel_size": [1, 1], "strides": [1, 1], "padding": "same", "data_format": "channels_last", "dilation_rate": [1, 1], "groups": 1, "activation": "sigmoid", "use_bias": true, "kernel_initializer": {"class_name": "GlorotUniform", "config": {"seed": null}}, "bias_initializer": {"class_name": "Zeros", "config": {}}, "kernel_regularizer": null, "bias_regularizer": null, "activity_regularizer": null, "kernel_constraint": null, "bias_constraint": null}, "name": "conv2d_4249", "inbound_nodes": [[["concatenate_1348", 0, 0, {}]]]}, {"class_name": "Conv2D", "config": {"name": "conv2d_4271", "trainable": true, "dtype": "float32", "filters": 1, "kernel_size": [1, 1], "strides": [1, 1], "padding": "same", "data_format": "channels_last", "dilation_rate": [1, 1], "groups": 1, "activation": "sigmoid", "use_bias": true, "kernel_initializer": {"class_name": "GlorotUniform", "config": {"seed": null}}, "bias_initializer": {"class_name": "Zeros", "config": {}}, "kernel_regularizer": null, "bias_regularizer": null, "activity_regularizer": null, "kernel_constraint": null, "bias_constraint": null}, "name": "conv2d_4271", "inbound_nodes": [[["concatenate_1355", 0, 0, {}]]]}, {"class_name": "Conv2D", "config": {"name": "conv2d_4293", "trainable": true, "dtype": "float32", "filters": 1, "kernel_size": [1, 1], "strides": [1, 1], "padding": "same", "data_format": "channels_last", "dilation_rate": [1, 1], "groups": 1, "activation": "sigmoid", "use_bias": true, "kernel_initializer": {"class_name": "GlorotUniform", "config": {"seed": null}}, "bias_initializer": {"class_name": "Zeros", "config": {}}, "kernel_regularizer": null, "bias_regularizer": null, "activity_regularizer": null, "kernel_constraint": null, "bias_constraint": null}, "name": "conv2d_4293", "inbound_nodes": [[["concatenate_1362", 0, 0, {}]]]}, {"class_name": "Conv2D", "config": {"name": "conv2d_4315", "trainable": true, "dtype": "float32", "filters": 1, "kernel_size": [1, 1], "strides": [1, 1], "padding": "same", "data_format": "channels_last", "dilation_rate": [1, 1], "groups": 1, "activation": "sigmoid", "use_bias": true, "kernel_initializer": {"class_name": "GlorotUniform", "config": {"seed": null}}, "bias_initializer": {"class_name": "Zeros", "config": {}}, "kernel_regularizer": null, "bias_regularizer": null, "activity_regularizer": null, "kernel_constraint": null, "bias_constraint": null}, "name": "conv2d_4315", "inbound_nodes": [[["concatenate_1369", 0, 0, {}]]]}, {"class_name": "Conv2D", "config": {"name": "conv2d_4337", "trainable": true, "dtype": "float32", "filters": 1, "kernel_size": [1, 1], "strides": [1, 1], "padding": "same", "data_format": "channels_last", "dilation_rate": [1, 1], "groups": 1, "activation": "sigmoid", "use_bias": true, "kernel_initializer": {"class_name": "GlorotUniform", "config": {"seed": null}}, "bias_initializer": {"class_name": "Zeros", "config": {}}, "kernel_regularizer": null, "bias_regularizer": null, "activity_regularizer": null, "kernel_constraint": null, "bias_constraint": null}, "name": "conv2d_4337", "inbound_nodes": [[["concatenate_1376", 0, 0, {}]]]}, {"class_name": "Conv2D", "config": {"name": "conv2d_4359", "trainable": true, "dtype": "float32", "filters": 1, "kernel_size": [1, 1], "strides": [1, 1], "padding": "same", "data_format": "channels_last", "dilation_rate": [1, 1], "groups": 1, "activation": "sigmoid", "use_bias": true, "kernel_initializer": {"class_name": "GlorotUniform", "config": {"seed": null}}, "bias_initializer": {"class_name": "Zeros", "config": {}}, "kernel_regularizer": null, "bias_regularizer": null, "activity_regularizer": null, "kernel_constraint": null, "bias_constraint": null}, "name": "conv2d_4359", "inbound_nodes": [[["concatenate_1383", 0, 0, {}]]]}, {"class_name": "Conv2D", "config": {"name": "conv2d_4381", "trainable": true, "dtype": "float32", "filters": 1, "kernel_size": [1, 1], "strides": [1, 1], "padding": "same", "data_format": "channels_last", "dilation_rate": [1, 1], "groups": 1, "activation": "sigmoid", "use_bias": true, "kernel_initializer": {"class_name": "GlorotUniform", "config": {"seed": null}}, "bias_initializer": {"class_name": "Zeros", "config": {}}, "kernel_regularizer": null, "bias_regularizer": null, "activity_regularizer": null, "kernel_constraint": null, "bias_constraint": null}, "name": "conv2d_4381", "inbound_nodes": [[["concatenate_1390", 0, 0, {}]]]}, {"class_name": "Conv2D", "config": {"name": "conv2d_4403", "trainable": true, "dtype": "float32", "filters": 1, "kernel_size": [1, 1], "strides": [1, 1], "padding": "same", "data_format": "channels_last", "dilation_rate": [1, 1], "groups": 1, "activation": "sigmoid", "use_bias": true, "kernel_initializer": {"class_name": "GlorotUniform", "config": {"seed": null}}, "bias_initializer": {"class_name": "Zeros", "config": {}}, "kernel_regularizer": null, "bias_regularizer": null, "activity_regularizer": null, "kernel_constraint": null, "bias_constraint": null}, "name": "conv2d_4403", "inbound_nodes": [[["concatenate_1397", 0, 0, {}]]]}, {"class_name": "Conv2D", "config": {"name": "conv2d_4425", "trainable": true, "dtype": "float32", "filters": 1, "kernel_size": [1, 1], "strides": [1, 1], "padding": "same", "data_format": "channels_last", "dilation_rate": [1, 1], "groups": 1, "activation": "sigmoid", "use_bias": true, "kernel_initializer": {"class_name": "GlorotUniform", "config": {"seed": null}}, "bias_initializer": {"class_name": "Zeros", "config": {}}, "kernel_regularizer": null, "bias_regularizer": null, "activity_regularizer": null, "kernel_constraint": null, "bias_constraint": null}, "name": "conv2d_4425", "inbound_nodes": [[["concatenate_1404", 0, 0, {}]]]}, {"class_name": "Conv2D", "config": {"name": "conv2d_4447", "trainable": true, "dtype": "float32", "filters": 1, "kernel_size": [1, 1], "strides": [1, 1], "padding": "same", "data_format": "channels_last", "dilation_rate": [1, 1], "groups": 1, "activation": "sigmoid", "use_bias": true, "kernel_initializer": {"class_name": "GlorotUniform", "config": {"seed": null}}, "bias_initializer": {"class_name": "Zeros", "config": {}}, "kernel_regularizer": null, "bias_regularizer": null, "activity_regularizer": null, "kernel_constraint": null, "bias_constraint": null}, "name": "conv2d_4447", "inbound_nodes": [[["concatenate_1411", 0, 0, {}]]]}], "input_layers": [["input_4", 0, 0]], "output_layers": [["conv2d_3385", 0, 0], ["conv2d_3435", 0, 0], ["conv2d_3457", 0, 0], ["conv2d_3479", 0, 0], ["conv2d_3501", 0, 0], ["conv2d_3523", 0, 0], ["conv2d_3545", 0, 0], ["conv2d_3567", 0, 0], ["conv2d_3589", 0, 0], ["conv2d_3611", 0, 0], ["conv2d_3633", 0, 0], ["conv2d_3655", 0, 0], ["conv2d_3677", 0, 0], ["conv2d_3699", 0, 0], ["conv2d_3721", 0, 0], ["conv2d_3743", 0, 0], ["conv2d_3765", 0, 0], ["conv2d_3787", 0, 0], ["conv2d_3809", 0, 0], ["conv2d_3831", 0, 0], ["conv2d_3853", 0, 0], ["conv2d_3875", 0, 0], ["conv2d_3897", 0, 0], ["conv2d_3919", 0, 0], ["conv2d_3941", 0, 0], ["conv2d_3963", 0, 0], ["conv2d_3985", 0, 0], ["conv2d_4007", 0, 0], ["conv2d_4029", 0, 0], ["conv2d_4051", 0, 0], ["conv2d_4073", 0, 0], ["conv2d_4095", 0, 0], ["conv2d_4117", 0, 0], ["conv2d_4139", 0, 0], ["conv2d_4161", 0, 0], ["conv2d_4183", 0, 0], ["conv2d_4205", 0, 0], ["conv2d_4227", 0, 0], ["conv2d_4249", 0, 0], ["conv2d_4271", 0, 0], ["conv2d_4293", 0, 0], ["conv2d_4315", 0, 0], ["conv2d_4337", 0, 0], ["conv2d_4359", 0, 0], ["conv2d_4381", 0, 0], ["conv2d_4403", 0, 0], ["conv2d_4425", 0, 0], ["conv2d_4447", 0, 0]]}, "keras_version": "2.6.0", "backend": "tensorflow"}